model/onet_model.pkl (torch, 909474 bytes, 15 tensors)

weight f4 [32, 3, 3, 3]
000000 b5 02 79 be bf ef f0 bd 82 3f d0 3d ea f5 23 bc
       -0.24317439 -0.11764478 0.10168363 -0.010007361
000010 b7 71 87 3d f2 dc 50 3e b2 07 5f bd cf b3 c3 bd
       0.06613486 0.20396784 -0.0544507 -0.0955578
000020 a1 2f d6 3d 57 27 40 bd f9 e0 1e 3e 8e 3b a5 3d
       0.10458303 -0.046912517 0.15515508 0.08068
000030 98 fb 0a 3d 08 56 dd 3d 4f af bd 3d 9e 91 02 3e
       0.033931345 0.10807425 0.09261953 0.12750861
000040 53 92 c2 3d 18 26 34 bc 14 32 0b bd 9b 0e 4f be
       0.095005654 -0.01099541 -0.033983305 -0.20220415
000050 e5 ab 8d be bd f4 d7 3d 79 21 bf bd 30 60 91 be
       -0.27670208 0.10544727 -0.09332556 -0.28393698
000060 7a ee 58 be ee 40 1e be 0b 3c c2 be 41 d2 6d bd
       -0.21184722 -0.15454456 -0.37936434 -0.058061842
000070 97 eb 01 3b 98 78 c0 bd d6 69 ab bc 1b 88 3a bd
       0.001982426 -0.093980014 -0.02092449 -0.045539957
000080 4e 16 82 3c 3b c4 b8 3c 84 f4 c7 bd 7c 88 f3 3d
       0.015879776 0.022554507 -0.097634345 0.11891267
000090 1a 87 3b 3e 79 a1 79 3e f6 72 45 bc 5b c3 81 3e
       0.18313256 0.24378003 -0.012051335 0.25344357
0000a0 ea 43 1c 3e 26 96 16 3e 35 d8 a9 3d de e1 77 3e
       0.15260282 0.14705715 0.08293191 0.24207255
0000b0 e3 ef 6e 3e 58 4e 80 be e9 15 7a be 99 47 8c be
       0.23333697 -0.25059772 -0.2442242 -0.27398375
0000c0 d4 d8 9c bd a5 11 63 be 56 c9 5b be e1 34 40 be
       -0.07658544 -0.221747 -0.21463522 -0.18770172
0000d0 38 bf 1d be a3 10 0a be a7 ea 78 bc b4 e7 a9 bd
       -0.15404975 -0.13482909 -0.015192664 -0.08296147
0000e0 47 80 f4 3b 96 3f 08 be c8 55 f2 bd 85 31 71 3d
       0.007461581 -0.13305506 -0.11832768 0.058885116
0000f0 3a a2 4f 3e 93 75 94 3e 78 bc 0a 3f 1a 1a 76 be
       0.20276728 0.28995952 0.5419383 -0.24033394
000100 eb 9b 92 be 09 e8 66 bd d4 a1 c8 be 4c f4 8e be
       -0.2863458 -0.05637363 -0.39185965 -0.2792076
000110 b3 b9 d8 bc a7 eb ad bc b7 ec 1a 3e 4b 1a 0f 3e
       -0.026455736 -0.021230532 0.15129362 0.13974874
000120 76 d4 d9 bd 13 a3 a9 bd 29 c9 8f bd c0 eb e9 bd
       -0.10636227 -0.08283057 -0.0702079 -0.11421919
000130 52 81 ba bd 15 0f 58 bb cb 45 a1 bd df b5 27 3e
       -0.09106697 -0.0032967974 -0.0787464 0.16377972
000140 f8 8c b5 3e a2 d0 a2 3d a9 fe 0f 3d 26 91 90 be
       0.35459113 0.0794995 0.035154972 -0.2823574
000150 fd d8 8c 3e ce ce 53 bd cb 3c bd bd 23 38 c5 3e
       0.275093 -0.051710896 -0.09240111 0.3851939
000160 74 4a af bc 94 45 99 3c 50 99 ed bc c8 c4 8a be
       -0.021397807 0.018709935 -0.02900377 -0.27103257
000170 53 a4 86 be d3 cb 36 3d fc db b6 bc 8a 12 b6 be
       -0.26297244 0.044627976 -0.022321694 -0.3556102
000180 12 1e 81 3e 41 4c b0 3d 79 15 16 be 72 70 41 3d
       0.25218254 0.08608294 -0.14656629 0.047226377
000190 73 23 68 be 43 19 eb bd 3d 40 2a 3e 6c f6 cb bd
       -0.22669773 -0.11479428 0.16626067 -0.099591106
0001a0 50 fb 24 be 6a b7 bb 3e 70 00 76 3e 3b e3 7b bc
       -0.16111493 0.3666337 0.24023604 -0.015374
0001b0 ed 78 0e 3f 2b 1f be 3a df 0a e1 be a0 55 bb 3e
       0.5565327 0.0014505138 -0.43953606 0.36588764
0001c0 e5 f5 ba 3d d5 a8 0e bf 87 08 62 3e 51 bc b7 bc
       0.09128932 -0.5572637 0.22073565 -0.022428663
0001d0 ef 38 be be 68 3c 2a 3f 78 31 a5 3d 88 c5 ad be
       -0.37152812 0.6649842 0.08066076 -0.33939767
0001e0 a7 ee bc 3e a8 1d ac 3d c7 4e c2 be 7e 12 87 3e
       0.36900827 0.08404094 -0.37950727 0.26381296
0001f0 6f ef 2a bd eb f0 d3 be 0f a2 ed 3e eb ca 11 3d
       -0.041732248 -0.41394743 0.46412703 0.03559391
000200 ff 44 cb be 6c 64 8a 3e 7d 19 a1 bd 63 c9 b9 be
       -0.39701077 0.2702974 -0.0786619 -0.36286458
000210 41 e0 87 3e 7b 6d 56 bd 18 42 a4 be 9c 18 91 3b
       0.2653828 -0.052350502 -0.32081676 0.0044279825
000220 0a d4 42 3d 38 e9 ce 3c 5b 6a dc bc 6f 4f df bc
       0.047565497 0.025257692 -0.026906183 -0.027259557
000230 03 2d bf bd e9 7f 2c be 64 90 63 bd 95 01 69 bc
       -0.09334757 -0.16845669 -0.055557624 -0.014221569
000240 4a 87 91 3d 35 25 25 3e b3 b7 81 bc 45 b1 ba 3b
       0.071058825 0.16127475 -0.015834665 0.0056974017
000250 57 2f a0 3d b3 f1 04 3b a3 c7 fd 3d e7 b6 24 3e
       0.07821529 0.0020285666 0.12391593 0.16085397
000260 f2 80 c9 3d 93 b4 27 be 05 5c 1a 3d c6 2b 38 be
       0.098390475 -0.16377477 0.037685413 -0.17985448
000270 ff bc c0 bc c4 6d 3f 3d 02 f3 40 be 76 81 d8 bd
       -0.02352762 0.04673554 -0.188427 -0.10571568
000280 c3 55 12 be d2 09 26 be 56 a4 76 3c 57 35 d2 3d
       -0.14290528 -0.16214684 0.015053829 0.1026408
000290 cf e7 80 3d 84 be 8c bd ea c8 bd 3d 72 69 05 bd
       0.06294214 -0.068722755 0.09266837 -0.032571264
0002a0 31 71 86 bd e1 46 ac 3c e5 71 87 3e 3d f1 85 bd
       -0.06564558 0.021029891 0.26454082 -0.06540153
0002b0 6f 3d 85 be a0 ff 23 be 82 ab 03 be 7c 30 65 be
       -0.26023433 -0.16015482 -0.12858394 -0.22381777
0002c0 98 85 c7 bd 6d dc 54 bd 28 f3 94 bc 62 7a 73 3d
       -0.09742278 -0.051968027 -0.018182352 0.059442885
0002d0 90 20 8c bd 02 d3 85 bd 0c 6c 5e be 72 9a 8d 3d
       -0.06842148 -0.06534387 -0.21720904 0.06914224
0002e0 69 3e 2c be 1b bc 36 bd 17 37 f1 3d 0f 00 30 bd
       -0.16820683 -0.044612985 0.11778086 -0.042968806
0002f0 6f 70 23 3d d8 ab ef bd 18 e9 e5 3c 61 36 cf bc
       0.039902147 -0.117026985 0.02806525 -0.025294485
000300 d1 1b ce bd e8 59 2b bd 9c 54 9c bd b8 c8 ae 38
       -0.10063899 -0.04183379 -0.076333255 8.334353e-05
000310 2f c1 86 bd b4 3d 1d be 06 ee 6a 3c b9 00 68 3e
       -0.065798156 -0.15355569 0.014338976 0.22656526
000320 bc 05 0b 3e da 9c f6 3c ad e9 53 3e 59 28 e5 bc
       0.13576406 0.03010409 0.20694609 -0.02797334
000330 e5 98 39 3e 25 49 4a 3e 2d 3f 2e 3e 08 ff 85 3d
       0.18124731 0.19754465 0.17016287 0.06542784
000340 46 52 1b be e8 c5 2c be d8 0c 10 3d 8b 1f 83 bd
       -0.15168104 -0.1687237 0.0351685 -0.06402501
000350 12 3c ce bd ab 81 48 be 09 cb 50 bd b3 dd 19 be
       -0.10070051 -0.19580714 -0.05097488 -0.15025978
000360 a0 0d 33 bb 9b 56 8d bd 65 d8 a7 3d 3a d6 9f bd
       -0.0027321354 -0.06901284 0.08195571 -0.07804532
000370 4e 45 a4 3d ba 75 e1 bd d8 a9 46 be 34 25 2e 3d
       0.08021031 -0.11008783 -0.19400728 0.04251595
000380 a9 d6 57 be f2 0a 10 3d 0a 1f 17 3d dc 97 27 3d
       -0.2107798 0.03516669 0.036894836 0.04091631
000390 ba 7e 38 3d 2d b2 44 bd 8e 9e 91 39 95 cf 04 3e
       0.04504273 -0.048021484 0.00027774688 0.12969811
0003a0 67 fa d3 3d c6 a3 78 3d ef b6 d8 bd 96 e5 64 bd
       0.10350495 0.06070306 -0.10581767 -0.055883013
0003b0 02 1a 41 be 60 24 d9 bc 37 5f d0 3d 97 27 28 3c
       -0.18857577 -0.026506603 0.10174411 0.010263345
0003c0 ca 41 dc 3d 5f 1d 80 bc e8 ee 54 bd e8 32 75 bd
       0.10754736 -0.015639005 -0.05198565 -0.059863
0003d0 00 27 0d 3e d4 53 13 3e d5 9e b7 3d 4e 28 d2 bd
       0.13784409 0.14387447 0.08965842 -0.10261594
0003e0 d9 45 2d 3e 07 92 35 3e 5e ac 84 bd b6 e1 11 3e
       0.16921176 0.17731486 -0.06478189 0.14246258
0003f0 7f 0a 82 be a3 6e 1c be bc df 00 3e f9 10 2c be
       -0.25398633 -0.1527658 0.12585348 -0.1680335

bias f4 [32]
000000 06 60 35 3e 14 01 36 3d 97 6b 37 3c c8 d5 18 be
       0.17712411 0.044434622 0.011195085 -0.14925301
000010 d4 02 16 3d ba 06 87 3d 08 81 cf 3c 84 5e 05 bb
       0.03662379 0.0659308 0.025330082 -0.0020350525
000020 6e fa 5f bb 2c a5 38 3d 80 30 77 3d af d0 50 3c
       -0.0034176367 0.045079395 0.060348988 0.012745067
000030 97 df ed 3d 8b 5a 11 3d 0f ce 61 bd 80 bf 02 3d
       0.11614912 0.03548674 -0.055128153 0.03192091
000040 c9 c0 70 bd 97 5e 00 3e 19 0e 24 3e 60 63 3a 3d
       -0.058777604 0.12536083 0.16021003 0.045504928
000050 34 61 6b 3d 66 e3 2e 3e c5 86 b7 3c 2b e1 b3 be
       0.057465747 0.17078933 0.02240313 -0.35132727
000060 84 57 5c 3d 91 5a 94 3d 44 32 b5 3d fd 7d 2f 3d
       0.0537944 0.07243837 0.08847478 0.04284476
000070 18 02 25 3d cc 9f 8f 3d b1 e7 a3 3e 2f 29 55 3e
       0.0402852 0.07012901 0.32012704 0.20816492

weight f4 [64, 32, 3, 3]
000000 26 e9 11 3e 0a 9e 69 bc 9f 93 10 be b2 d8 85 bd
       0.14249095 -0.014258871 -0.14118813 -0.06535472
000010 83 df bf bd 30 3b e6 bc 97 89 0f 3e 35 7b 61 3d
       -0.09368803 -0.028104395 0.1401733 0.05504914
000020 bb 28 68 3e 82 70 90 bc 73 76 6c bd 24 3a 8a be
       0.22671787 -0.017631773 -0.05773015 -0.26997483
000030 20 e6 63 3d 9e ce ce 3d ad d1 1c be 37 1c eb 3d
       0.055639386 0.10098003 -0.1531436 0.11479991
000040 7c aa 38 3e ff 22 21 3e 0e 70 5e be 87 2b 98 be
       0.18033785 0.15736006 -0.21722433 -0.2972071
000050 fc a6 9b bd b8 f4 b1 be 3d af 14 be a4 73 ec bd
       -0.07600209 -0.34757018 -0.14519973 -0.11545494
000060 16 00 87 be 50 ed ca bd 91 7c 1b be d0 b0 87 bd
       -0.26367253 -0.09908545 -0.15184237 -0.06625521
000070 fc 68 b4 bd 34 0c df 3b 84 65 29 3d 4d 76 97 3c
       -0.08809087 0.0068068746 0.04135658 0.018489027
000080 5c 83 c9 bd 35 24 dc 3d 14 d4 93 3d ab f1 25 bc
       -0.09839508 0.107490934 0.07218185 -0.010128419
000090 37 c6 45 bf 10 4e 32 bf da 97 d2 be 16 58 2d bf
       -0.77255577 -0.69650364 -0.4113148 -0.67712533
0000a0 d2 a2 3d be 39 6e 1a be 10 d5 54 bd 9f 8b 80 3e
       -0.18519142 -0.15081109 -0.051961005 0.25106522
0000b0 e1 7b b0 3e f1 27 11 3c c9 ea 95 bd 94 4f 02 be
       0.34469512 0.00885962 -0.07320172 -0.12725669
0000c0 e8 fe 3c bd f0 dd 53 bc 2e e9 af bc ee 1c 90 bc
       -0.046141535 -0.012931332 -0.021473493 -0.01759192
0000d0 fd d1 83 3c c5 69 78 3d 70 e4 52 bd a7 65 9a bc
       0.016091341 0.060647745 -0.051487386 -0.0188473
0000e0 c8 57 e2 bd 89 62 9b 3d c7 be 8e bc 99 87 3a bd
       -0.11051899 0.075871535 -0.017424954 -0.045539472
0000f0 c5 f5 d0 3c 56 88 88 bd d3 51 32 bd dc fe 44 3d
       0.025507817 -0.06666629 -0.043535065 0.048094615
000100 80 38 1b bc d6 83 bd bd 73 8a cb 3c d7 76 1f 3d
       -0.00947392 -0.09253661 0.024846291 0.038931694
000110 b8 82 a9 bd 35 fe d6 3b 08 51 9e 3d a1 92 20 3e
       -0.08276886 0.0065610656 0.07730299 0.15680934
000120 58 0e 6d 3d 5f b1 75 bd 7b 14 a1 bc fb 7e 2c 3e
       0.057875007 -0.059983607 -0.019663086 0.16845314
000130 3f 20 88 3d 9e 89 90 3d d1 8d 4c 3d a3 9f c7 3d
       0.066467755 0.070574984 0.049939934 0.09747245
000140 6c 2f c4 3d 9e 64 82 3e 0f ba fe 3d ee 0c 91 3d
       0.095793575 0.2546739 0.124378316 0.07082544
000150 44 e9 38 3e 95 17 c3 3d 92 79 99 3c 97 a0 05 3d
       0.18057734 0.09525982 0.018734727 0.032623854
000160 70 ee 30 3e 6e 91 d9 3d f7 66 45 3b af 53 c5 bd
       0.17278457 0.10623442 0.0030121186 -0.09635102
000170 e9 bd 81 be ad 31 be bd 2e 18 15 be 93 d0 f4 bd
       -0.25340202 -0.09286819 -0.14560005 -0.11953845
000180 fd 1f b7 3c 83 12 77 3d a3 d1 de bd bc a1 5c bd
       0.02235412 0.06032039 -0.10879829 -0.05386518
000190 36 5e ae bd 6b ad e9 bd 8c 03 79 bd 15 11 b5 3d
       -0.08514063 -0.1141003 -0.0607944 0.08841149
0001a0 14 49 a2 3c 6a cc 3a bc 2a 46 18 3e 4a 54 06 3e
       0.019810237 -0.011401275 0.14870515 0.13118091
0001b0 1f 5c 97 bd 42 74 50 bd b3 bb 48 be 3c e0 46 bb
       -0.073906176 -0.050892122 -0.19602852 -0.0030346056
0001c0 17 ef 99 bd 60 aa 09 be e0 ef 88 3d ca f8 5e bd
       -0.07516306 -0.13443899 0.066863775 -0.054436482
0001d0 8c c4 5b 3d 33 a8 ba 3d c3 39 77 3d 25 b1 ed bd
       0.05365424 0.09114113 0.06035782 -0.11606053
0001e0 c7 c8 04 3d f7 d2 a5 3c 5f 5e 09 bd 40 a1 c2 bd
       0.03241804 0.020242197 -0.033537265 -0.09503412
0001f0 37 99 29 ba d0 7a d2 3b f6 0e b1 3c a5 d5 37 3b
       -0.0006469669 0.006423332 0.02161358 0.0028050926
000200 43 0e 3f be ab b9 4f 3d 25 33 06 bc 7e ee ea bd
       -0.18657784 0.050714176 -0.008190905 -0.1147127
000210 0c b9 fc bd 2e b9 3b be bf 85 4a be 3c 0f 73 bd
       -0.123399824 -0.18332359 -0.19777583 -0.0593407
000220 6e 8a d5 bd 0c 80 9b bd 80 ab 7f 3b 33 a2 27 bd
       -0.10426794 -0.075927824 0.0039012134 -0.04092617
000230 fe 33 91 bb f6 14 a4 3c 79 d4 87 3c 3e e9 3b 3d
       -0.004431247 0.020029526 0.016580807 0.045876734
000240 1f 27 5b be 6d 0f c6 bd ac 6d 6f be 80 f8 48 be
       -0.21401642 -0.09670911 -0.2338168 -0.19626045
000250 e1 31 7d bd 6d c4 fb bc f9 0f 96 be c4 11 d6 bd
       -0.061815146 -0.030733312 -0.2930906 -0.10452607
000260 24 1f 05 3d 40 cf c8 3c 74 12 cd bb 06 a2 30 bd
       0.0325004 0.024512887 -0.0062583033 -0.043123268
000270 a8 00 af 3d e5 97 46 bd 2d 89 94 bc 80 6c 24 3d
       0.08545047 -0.0484847 -0.018131817 0.040142536
000280 a8 41 26 3d bd b6 c8 3c e1 ee 20 3d ba 5e 46 bd
       0.04058996 0.024501199 0.039290313 -0.048430182
000290 55 5b 13 be b9 23 4e 3d 74 2c b8 bd 1c 7b d7 bc
       -0.14390309 0.050327037 -0.08992854 -0.02630382
0002a0 33 02 d4 bd 69 e7 31 3d d7 cc b5 3b fd f7 04 3e
       -0.10351982 0.04343358 0.0055481005 0.12985225
0002b0 43 e7 09 bd 0f f0 c2 bd 42 62 81 3d ee 06 34 bd
       -0.033667814 -0.09518444 0.06317569 -0.04395192
0002c0 1f 75 50 3d 58 6f 1e 3e ae ba e7 bc 15 c9 77 3c
       0.050892945 0.15472162 -0.028287258 0.015123625
0002d0 4e dc f3 3d 73 b0 84 bc a5 df cd bd 27 b5 bd 3d
       0.11907254 -0.016197419 -0.100524224 0.09263068
0002e0 69 49 75 3d 83 3e 7e 3d 9a ba 36 3e 46 8b 14 3e
       0.059884463 0.062071335 0.1784462 0.14506254
0002f0 8b 55 2e 3e 82 f0 91 bd c3 cf 21 bc 8e 24 73 be
       0.1702482 -0.07125951 -0.009876194 -0.23744413
000300 5e 67 41 3c 0e 56 2f bd c2 75 cd bd bd 2e e1 3d
       0.01180443 -0.042806678 -0.10032226 0.10995243
000310 2b ba 89 3d 87 27 41 bb e3 22 36 be d7 17 ed bd
       0.06724962 -0.0029473023 -0.17786746 -0.11576813
000320 32 bf 22 be 55 68 bd be fb 8c 85 be 7c c9 e5 bc
       -0.15893248 -0.36993662 -0.26084122 -0.028050177
000330 80 f2 67 bf 4e 02 86 be d8 81 41 3e 20 38 d5 bd
       -0.906044 -0.26173633 0.18897188 -0.104110956
000340 72 c5 a6 3d c8 62 14 3e 15 7a 69 bc 4d 35 cd 3b
       0.081431285 0.14490807 -0.014250298 0.0062624575
000350 ad 07 11 3d ba 25 04 be 7a 29 ad bd a1 fe 9b 3d
       0.03540771 -0.12905017 -0.08455177 0.07616926
000360 cc 9b 70 bd 07 68 18 be 68 63 85 be a7 42 cc bd
       -0.05874233 -0.14883433 -0.26052403 -0.099736504
000370 4d 8a 3f be e7 99 f6 bd fd d3 27 be d1 52 b2 bd
       -0.18705101 -0.12041073 -0.16389461 -0.08707202
000380 8f 8b d1 bd 2a d7 ea 3d 7a 27 ac 3c 1e fc 37 be
       -0.10231697 0.114668205 0.021014918 -0.17967269
000390 47 fe 13 3e c8 2c 9f 3d 59 4e 21 bd b8 3f 37 3e
       0.14452468 0.07772213 -0.03938136 0.178954
0003a0 95 c9 aa 3d 2a 12 bc 3d 34 46 60 3e 26 d0 72 be
       0.0833923 0.09183152 0.2190178 -0.23712215
0003b0 08 ab 93 be 94 a3 32 3e e5 84 09 bd 5b c3 21 be
       -0.28841424 0.17445213 -0.033574004 -0.15797178
0003c0 98 1e e1 3d bc b8 82 3d 1e 67 11 3d dd 6b 84 3b
       0.109921634 0.063828915 0.03549873 0.0040411786
0003d0 3b be c0 bd 0c f7 3c bd c5 4e 7c bd 56 22 0c bd
       -0.094112836 -0.04613404 -0.061598558 -0.034212433
0003e0 11 6b a6 bd 91 5a 0a be 56 35 78 bd 60 b5 cb 3c
       -0.0812589 -0.13511111 -0.06059774 0.02486676
0003f0 fe 59 b3 3e b9 c4 31 3d b0 da 05 be 46 1a 60 3e
       0.35029596 0.0434005 -0.13071704 0.21885023

bias f4 [64]
000000 63 58 8b 3e 31 0a 8c 3e 5e 00 7e 3e 03 cd 73 3e
       0.2721587 0.27351525 0.24804828 0.23808675
000010 1d 95 49 be d6 a0 ad 3d 07 3e 05 3e 08 ac bc 3d
       -0.19685788 0.08477943 0.13011943 0.092125
000020 98 35 df bd 64 31 fc 39 b7 bb 33 bc 06 25 ab bc
       -0.10898894 0.00048101984 -0.010970048 -0.020891678
000030 1c e7 82 bd 82 04 83 be f1 85 58 3d 78 48 21 3e
       -0.06391737 -0.25589377 0.05286211 0.15750301
000040 9c dd 2f 3e 96 a5 1e bc 74 fa 89 3e 02 52 ac bd
       0.17174381 -0.009683033 0.26948893 -0.08414079
000050 2c f0 f7 be 51 33 61 3e 5f ce 3e bd 67 9d 74 bd
       -0.48425424 0.21992232 -0.04658353 -0.059720423
000060 45 3f c9 bd 53 e5 30 3c 5c af a8 bd b0 d0 bf bb
       -0.09826521 0.010796863 -0.08236572 -0.005853735
000070 95 f2 0d bf fd d3 c7 bd 3d ac 28 bd 84 bf 94 be
       -0.55448276 -0.097572304 -0.041179884 -0.29052365
000080 fe 86 36 3e 6f 37 bd be cf c3 10 3e e6 d9 ae bd
       0.17824933 -0.36956355 0.14137195 -0.085376546
000090 6d c3 d3 3d e6 78 78 3d 58 2c 43 bd c8 a4 46 be
       0.10340009 0.060662173 -0.04764971 -0.19398797
0000a0 cd cd 17 bc 51 97 0a 3d 91 7b 37 3b ff 99 0b 3d
       -0.009265375 0.033835713 0.0027997235 0.03408241
0000b0 d8 9e 26 3e 88 e1 b6 3d 30 96 b4 3d 2f 68 4c 3d
       0.16271532 0.089297354 0.088177085 0.049904045
0000c0 13 6a d2 bc 2e 5f 9d bb 81 81 f5 3d 7d f1 16 3e
       -0.025685346 -0.004802606 0.119875915 0.14740558
0000d0 2a 26 98 bd 0f 3b bc 3d ec 16 0c 3d ed 73 fa 3e
       -0.07429154 0.09190952 0.034201548 0.4891657
0000e0 d1 a7 79 bd 31 0d b1 3d c8 84 98 3d bb ad cd 3d
       -0.060951058 0.08645094 0.07447201 0.10042902
0000f0 5a af 8f bd b6 2c 3e 3d f9 eb bf 3d a9 34 47 be
       -0.070158675 0.04642936 0.0937118 -0.19453682

weight f4 [64, 64, 3, 3]
000000 34 a2 14 3e 81 51 57 be fe fa 92 3e 44 98 de 3c
       0.14515 -0.21027185 0.28707117 0.027172215
000010 af 78 33 be 4a 85 1f 3e e1 40 7c 3d 59 92 3f be
       -0.17526506 0.1557819 0.06158531 -0.18708171
000020 ae 76 6d 3d 20 2a 78 bc 3b dd aa bd 80 79 72 be
       0.05797451 -0.015146762 -0.083429776 -0.23679161
000030 79 e9 f3 3e b6 ab 35 be d2 a2 3c be 1f 3d 0b 3f
       0.47639063 -0.17741284 -0.18421486 0.5439014
000040 40 4e 5c be 6b 20 81 be db e6 f1 3e 23 19 a0 bc
       -0.21514225 -0.25220045 0.4724644 -0.019543236
000050 c4 2a 79 bf 37 11 4e 3c 07 00 0c 3d 30 09 16 bf
       -0.9733088 0.0125773465 0.034179714 -0.5860777
000060 0c 70 15 be a4 29 cc 3e 59 8e 6b bd 2a d9 6f 3e
       -0.14593524 0.3987552 -0.0575088 0.23422685
000070 d1 9b 2f 3d 3d 17 07 be 56 c1 a3 3d 1a db 0d 3d
       0.042873207 -0.13192458 0.0799586 0.03463278
000080 bf d8 88 bc 9f 32 44 be 86 4c 89 be a5 82 cf bd
       -0.016704915 -0.19159935 -0.26816195 -0.1013234
000090 69 15 e1 3d d7 76 a1 3d 40 ff e5 3d 8a 74 91 bd
       0.10990412 0.07883995 0.11230326 -0.07102306
0000a0 2a 2c c3 3d 7d 39 19 3d 6d fa 6f 3d 6d 07 a5 bd
       0.09529908 0.03740834 0.058588434 -0.08058057
0000b0 93 79 02 be ba 12 28 3e c3 9b b4 bd 11 7d e7 3d
       -0.1274169 0.16413394 -0.08818772 0.113031514
0000c0 8a 08 32 3e e3 d6 9b 3c 10 b4 ad 3b 80 f9 a7 3e
       0.1738607 0.019023364 0.005301006 0.3280754
0000d0 ce 98 f3 3d b1 d7 b9 bd 8c e7 de bd 80 d0 d0 bd
       0.118943796 -0.09074343 -0.10884008 -0.10196018
0000e0 f5 1f f5 bd 29 09 4c 3d 5f b3 a1 bd f6 7a 97 bd
       -0.11968986 0.049813423 -0.078955404 -0.073965
0000f0 7b 30 48 3d 80 a2 5d 3e 60 eb 08 3e c2 45 6d 3e
       0.04887436 0.2164402 0.13371038 0.23171142
000100 b1 aa 8b bd 55 1c 59 3e 1e 5b af 3e 97 c7 08 3b
       -0.06819666 0.21202214 0.34249204 0.0020870918
000110 4b 6c f6 3c a0 c5 44 3e f2 29 fe bc ff 7c 0f bd
       0.030080935 0.19216013 -0.03102586 -0.035031315
000120 78 1a b7 3d 25 f9 c6 3d e2 58 b7 3d a9 51 7c be
       0.089405954 0.09715489 0.089525 -0.24640526
000130 d9 b6 11 3e 0f 5d 0b 3e 5b 02 1d 3e 87 92 1d bd
       0.14229907 0.13609718 0.1533293 -0.038469817
000140 86 8a 0f be 67 45 a2 bd ce bf e2 3c 67 3c b1 bc
       -0.14017686 -0.07923394 0.02767935 -0.021635247
000150 65 0a 74 bc 03 21 f5 bb c6 3e 53 bd 59 de 8c 3c
       -0.014895056 -0.007480742 -0.051573537 0.017195867
000160 b6 2b 83 3c 61 ae 09 3d 64 1a d6 be d4 8c 7b be
       0.016012054 0.033613566 -0.4181701 -0.2456544
000170 40 48 d2 be 9f 70 f7 bc b3 15 05 bd 45 8e 46 be
       -0.41070747 -0.03020507 -0.032491397 -0.19390209
000180 5d 6a 70 3d 3d 57 3d bd fc ae 55 be d5 49 f5 bd
       0.058695186 -0.046225775 -0.20867532 -0.11976973
000190 d8 be 6b be da 13 20 be ca 0e d9 bc a5 e6 bc bd
       -0.2302202 -0.15632573 -0.02649631 -0.092236795
0001a0 44 8f a9 bd ef 65 2e be fd 85 08 be 98 a5 77 bd
       -0.08279279 -0.17031072 -0.13332362 -0.060460657
0001b0 58 40 f8 bc 0f 0d 00 3e 09 d3 4e 3e f7 1f 2f bd
       -0.030304119 0.12504981 0.20197691 -0.042755093
0001c0 aa 1f ad 3d 41 64 2d 3d 96 3b be bd 66 8b c2 bd
       0.08453305 0.042331938 -0.09288709 -0.094992444
0001d0 12 14 17 be 3f 31 a6 bd e1 47 07 be 4b 38 9f bd
       -0.1475375 -0.08114862 -0.13211013 -0.07774409
0001e0 28 85 96 bd b4 57 2b be 14 a9 ab bd 67 75 7a bd
       -0.07349616 -0.16732675 -0.083818585 -0.06114712
0001f0 5f 91 ec bd ce 09 f2 3c 0e fe 0d 3e 96 88 26 bd
       -0.11551165 0.02954569 0.13866445 -0.040657602
000200 02 c3 0d bc f5 fd 0a 3d 60 cf 8a 3d 34 ca 9c bd
       -0.0086524505 0.0339336 0.06777835 -0.07655755
000210 ad b9 ce bc 70 1a 82 bd 72 20 07 be 45 8f a2 3d
       -0.025235021 -0.06352699 -0.1319597 0.07937483
000220 4d ea fc bc 1c 38 8c 3b 94 70 56 3a 13 5e 32 3d
       -0.030873442 0.0042791497 0.00081802276 0.043546747
000230 92 6f bd 3c cd d4 74 3c 2b 06 56 bc cb a1 1e be
       0.02312449 0.014943314 -0.013062994 -0.15491407
000240 7b a6 1b be ee d4 d3 3b 98 07 86 3e 28 a4 0b be
       -0.15200226 0.006464592 0.2617767 -0.1363684
000250 eb 14 55 bd 1a 16 e6 3d 97 47 86 3c b0 59 06 bc
       -0.052021902 0.11234684 0.016391559 -0.008200094
000260 c6 14 7e 3c e4 87 c5 3c 57 bd 13 bc bf 7e 91 bb
       0.015507882 0.02411265 -0.00901731 -0.004440158
000270 f2 4b 88 3d 2e 24 eb bc 74 21 39 bd 0d 64 8b bd
       0.066551104 -0.028703775 -0.04519792 -0.068061925
000280 2e 98 25 bd 9a 9b 0c bc 7c ca c7 3d 81 f7 08 3e
       -0.040428333 -0.00858202 0.09755418 0.13375665
000290 1d 2e f5 bd 8b 28 ed bd 30 af a4 3e 2a 85 e2 bd
       -0.11971686 -0.115799986 0.32164907 -0.11060555
0002a0 47 b4 23 3e 61 7d b0 3d e1 f6 45 be e9 d7 aa 3d
       0.15986739 0.08617664 -0.19332458 0.08341963
0002b0 b0 3e 88 bc 32 9d db 3c fe 6c 01 3e f7 94 05 3c
       -0.016631454 0.026808355 0.12639233 0.008153192
0002c0 cc d3 25 bd 8a b2 af 3c e8 b4 6c 3d a6 41 d4 bc
       -0.04048519 0.021447439 0.057789713 -0.02591021
0002d0 9d 70 2f 3e da 98 6f 3e b1 1a 7c 3e da b5 0f be
       0.17132802 0.23398152 0.24619557 -0.14034215
0002e0 57 44 1f be d4 cf ce bd c4 20 86 be bd 78 03 bf
       -0.15553413 -0.10098234 -0.26196873 -0.51356107
0002f0 6d c2 b1 be f8 64 f7 3d d5 88 1c be 89 ec 0d be
       -0.34718648 0.12079805 -0.15286572 -0.13859762
000300 c0 5d 19 3e ad 97 fb bd 40 db 04 be 7b 26 bc 3c
       0.14977169 -0.12284789 -0.12974262 0.022967568
000310 85 4e de bc 0d 35 40 be f8 11 34 bb 25 a9 29 3c
       -0.02713705 -0.18770237 -0.002747653 0.010355269
000320 fc 98 73 3d e2 cc c9 bc aa 28 99 bd 3e e3 23 3d
       0.05947207 -0.024633829 -0.07478459 0.040011637
000330 6b 45 8c 3d c0 53 0f 3b 03 b1 eb bc a1 bd 23 be
       0.06849178 0.0021869987 -0.02877093 -0.15990306
000340 d8 59 34 3e 27 d6 f6 be 78 90 2d be a5 37 17 3e
       0.17612398 -0.4821026 -0.16949642 0.1476732
000350 7a 88 a6 be ee 85 c3 3e dd 42 25 3d 81 ee 26 bf
       -0.32525998 0.38188118 0.04034697 -0.6520768
000360 4e 3d b7 bd be 11 8d 3e fb 1c f5 be 33 1c c2 be
       -0.0894724 0.275526 -0.47873673 -0.3791214
000370 e1 44 ca bd 23 1b f0 be 4e 7b f7 be 49 b8 e5 be
       -0.09876419 -0.46895704 -0.48336262 -0.4486716
000380 eb 3c 13 be d8 dc b8 3d 8f c1 2d 3e f2 9a b1 3d
       -0.14378707 0.090264976 0.16968368 0.086721316
000390 a7 9a 68 be a9 93 44 3b 06 a1 23 3c 76 fd 49 bb
       -0.22715245 0.002999524 0.009987121 -0.003082124
0003a0 c2 36 8e 3d 97 31 3a be da 59 7c 3e 22 64 62 3e
       0.06944038 -0.1818298 0.2464365 0.2210851
0003b0 ae 35 2d bd dd 88 59 3e 0e 94 7b 3d 57 95 33 be
       -0.04228752 0.21243615 0.061420493 -0.17537437
0003c0 63 6b e4 be 92 f2 3e bf d1 5e 13 bf b5 7f 3c 3e
       -0.4461318 -0.7458888 -0.57566553 0.18408091
0003d0 31 ce 13 3e 10 88 9a bd a8 00 3e be 91 d1 46 be
       0.14434125 -0.07545483 -0.18554938 -0.1941588
0003e0 90 88 ae be da 92 f7 bd cc 2a 5f be ff a1 3d 3e
       -0.34088564 -0.120885566 -0.2179367 0.18518828
0003f0 2c eb a4 be 74 ba a8 3c 53 80 44 be e0 43 88 3d
       -0.32210672 0.02059672 -0.19189577 0.06653571

bias f4 [64]
000000 b4 e4 6c 3e e1 b1 16 3c 09 c3 0c be 7f b0 d1 be
       0.23134118 0.009197683 -0.13746275 -0.40954968
000010 dc 11 d1 3d 19 fe ae 3e 3d 83 e3 3d 9f f0 10 be
       0.102084845 0.34178236 0.11109016 -0.1415429
000020 ca 6d b0 3d 5d 55 b5 3c 95 0e 9e 3e be ec d2 3d
       0.086146906 0.022135431 0.308705 0.10299061
000030 5d 2f 03 3f ae f3 79 3e 99 c0 64 bd 97 dd f7 3d
       0.51244146 0.24409363 -0.055847738 0.12102812
000040 84 bf 09 3d c0 79 25 3e 44 b5 53 3e 81 db 21 be
       0.03362991 0.16159725 0.20674616 -0.1580639
000050 36 db 02 3f 64 14 5b be b9 3e 7d 3e 17 68 a9 3e
       0.5111574 -0.21394497 0.24730958 0.33087227
000060 1d 93 dc bd 4e 18 95 3d ab b7 6f bd f9 d6 8c bd
       -0.10770247 0.072800264 -0.05852477 -0.0687694
000070 2f b7 a2 bd 33 a7 db 3d ff 11 40 3d f7 d4 6b 3b
       -0.07945096 0.1072525 0.046892162 0.0035985091
000080 96 dd aa be 62 08 98 3d 69 a2 4c be 49 42 df bc
       -0.33372182 0.07423474 -0.1998383 -0.027253287
000090 56 4d c5 be 1c 47 d0 3e d0 a9 e2 be f2 0e e0 bc
       -0.38535565 0.40679252 -0.44270182 -0.027350876
0000a0 11 8e 86 3e d6 18 80 3e 1d 58 09 3d d1 53 2a 3e
       0.26280263 0.25018948 0.033531297 0.16633536
0000b0 0d 50 d9 3d 3f 51 6a be e1 ae 73 bd b2 a7 41 bf
       0.106109716 -0.22882555 -0.05949295 -0.7564651
0000c0 ca a4 ff 3d 85 cf f4 3e c2 f9 f3 bd 48 48 c5 be
       0.12482603 0.47814575 -0.11912872 -0.3853171
0000d0 6d 1e 48 be 2a b1 2c 3e 60 f2 07 3a 34 5b 29 3e
       -0.19542857 0.16864458 0.0005185958 0.16538697
0000e0 55 a3 92 bd dd 31 10 3e b2 88 b8 3d 36 d2 16 3e
       -0.07160059 0.14081521 0.090104476 0.14728627
0000f0 53 1b 2d 3e c4 65 c0 bd 29 d6 3e be 17 1c 96 3e
       0.16904955 -0.0939441 -0.18636383 0.29318306

weight f4 [128, 64, 2, 2]
000000 3d 94 cb bd 2f 52 df bc e5 29 02 be 6f 01 cf 3c
       -0.099403836 -0.027260868 -0.12711294 0.025269238
000010 18 73 d5 bb 2e 2f 1a 3d 6b fd c6 bc ef 1e 52 3d
       -0.0065139644 0.03764265 -0.024290761 0.05129903
000020 e6 95 35 3e ca 68 5d 3e a9 d0 2e 3e d9 9c 40 3e
       0.17732963 0.21622005 0.17071785 0.18809833
000030 c8 ef c2 3e 9f 6f 9b 3c b0 44 41 3e 4c 03 26 3d
       0.38073564 0.018974124 0.18873858 0.040530488
000040 e8 a6 8d bd 5f 54 6a bc 94 9e c5 bd e9 94 24 3d
       -0.069166005 -0.014302342 -0.09649387 0.040181074
000050 23 15 a7 3d 2b a9 2a 3e 14 fb 83 3d e0 2d 82 3e
       0.081583284 0.16666095 0.06444374 0.25425625
000060 1d d8 46 be 10 bd c1 bc 14 1a 0a bc 62 1c 30 bd
       -0.19418378 -0.023649722 -0.008429069 -0.042995818
000070 8d 11 4d be 94 f5 82 be c0 b4 c1 bd 5b f0 84 bd
       -0.20026226 -0.25577986 -0.094583035 -0.06491157
000080 ed 8d e2 3c 4b 7d 92 3c 4b df a5 3d 38 ba 68 ba
       0.027655566 0.01788201 0.080992304 -0.00088778464
000090 93 17 08 bd 3e 79 52 3d 6b f2 24 3e 00 4d 2f 3d
       -0.033225607 0.051385157 0.161081 0.042798042
0000a0 d7 b4 f0 bd 4f f7 f9 3c 5a 20 8e bd 7a 1a a4 3d
       -0.117532425 0.030513434 -0.06939764 0.080128625
0000b0 30 3c 6f be f6 fc 4b 3e 2b b8 a2 be bd b6 66 3d
       -0.23362803 0.19920716 -0.31781134 0.056326617
0000c0 18 f7 04 3e 72 62 03 3e 09 4c 6b bd 2d 73 03 3f
       0.12984884 0.12830523 -0.05744556 0.5134762
0000d0 b2 42 18 bd 8a d1 38 3d 81 4c 33 3c a9 30 8a bc
       -0.03717298 0.045121707 0.010943533 -0.016868906
0000e0 bb c7 81 3e dc 42 46 3e 64 ec d2 bd a5 7b 13 be
       0.25347695 0.19361442 -0.10298994 -0.14402635
0000f0 06 77 d2 3d fb b0 61 bd 5b ac d7 bc f9 8e d5 3c
       0.10276608 -0.055100422 -0.026327303 0.026069151
000100 3c e1 22 3e e4 5c 30 3c 31 70 c1 3e 93 36 10 3e
       0.15906233 0.010764334 0.37780908 0.14083318
000110 43 ed eb bd 20 b5 84 bd cb 5e 1b bd f6 2a 13 3e
       -0.115198635 -0.06479859 -0.0379322 0.14371857
000120 0d c7 1c bd 60 21 2a bd e4 4b 8e bc b4 fa 36 3d
       -0.038275767 -0.041535735 -0.017370172 0.044672683
000130 0b aa 19 bd 33 15 8f bd cf 2a 98 be 19 f4 81 3b
       -0.03751568 -0.06986465 -0.2972016 0.0039658663
000140 ae c1 a7 be 34 0b 8d bd 3a 86 1c be 24 d4 c8 3d
       -0.32764953 -0.068869025 -0.15285578 0.098060876
000150 c3 44 d4 3d 15 7d b0 bd ca 1a 8a 3e 06 6f 48 be
       0.10364678 -0.086176075 0.26973563 -0.19573602
000160 8b 6f 9e bc c3 dc 65 bd e5 b3 5c bc 3f b3 cd 3d
       -0.019340297 -0.056118738 -0.013470625 0.10043954
000170 7b 26 38 3e 14 1c 9f 3d 70 62 69 3e 98 b0 a5 be
       0.17983429 0.07769027 0.22791457 -0.32361293
000180 43 a0 42 bd e3 3b 48 3d 12 08 69 3e 89 69 9c bd
       -0.04751612 0.048885237 0.22756985 -0.07637317
000190 35 ff 1c 3e 5b e8 fe 3d 6c 47 91 3d f4 00 c7 bd
       0.15331729 0.12446662 0.07093701 -0.09716979
0001a0 fa 49 30 be c5 a9 c9 bd 0c ea 6d 3d 19 6c 7b be
       -0.1721572 -0.09846834 0.058084533 -0.24552955
0001b0 12 01 32 be 2d 5c 8b be 7d 1c 24 3d fd 8e 57 bd
       -0.17383221 -0.27218762 0.04006623 -0.0526266
0001c0 f4 96 8b bd 4a 41 50 be 2a bb 07 be ca a1 5f 3d
       -0.068159014 -0.20337406 -0.13254991 0.054597653
0001d0 e8 3c c6 3c 0e 84 db bd a1 88 a8 3d 9a 0a a3 bc
       0.024198964 -0.10718547 0.08229185 -0.019902516
0001e0 d2 33 0c 3e 0d 8d 21 be 44 b0 bd 3d 93 4a cf bd
       0.13691643 -0.15776463 0.092621356 -0.10121646
0001f0 32 c3 6d be 97 83 2b be ec fe 28 bd 43 00 ca 3b
       -0.23218992 -0.16749416 -0.041258737 0.006164582
000200 f2 d1 70 be 11 12 b3 bd 1a 64 0a 3c 6b 8c 30 be
       -0.23517588 -0.0874368 0.008446718 -0.17241065
000210 e9 c8 99 bd f7 0f cd bd df 05 8b 3d fa 50 70 bd
       -0.07509024 -0.10012811 0.06788229 -0.058670975
000220 60 76 ff 3d a7 81 05 3d 14 6b ac 3d f1 c8 15 3d
       0.1247375 0.03259435 0.08418861 0.036568586
000230 24 4c fe bd 9b 91 23 3d 5e 0a 9b be ae 1e a6 bd
       -0.124168664 0.039933782 -0.30281347 -0.081113204
000240 5d a5 55 be 1a 37 38 be 64 cb 89 3e 00 92 67 be
       -0.20863862 -0.1798977 0.26912987 -0.22614288
000250 64 3b a4 3d 11 39 22 3d 34 0f 82 bd 3b a1 c8 3c
       0.0801914 0.039605204 -0.06350556 0.024490943
000260 b1 c3 83 be 11 19 fa bd f3 6b ac be f5 d2 51 be
       -0.25735238 -0.12211812 -0.3367611 -0.2049063
000270 3f bb c7 bd 3e 1e cf 3c ad 0d 96 bc 50 b2 84 bc
       -0.09752511 0.025282975 -0.018317068 -0.016198307
000280 68 f8 ca bd 63 fd 19 bc b6 3f bd be 4d 22 a2 3d
       -0.09910661 -0.009398791 -0.3696267 0.079166986
000290 00 85 23 3e 0e 45 b6 be 94 7f fb 3c ee df 07 be
       0.15968704 -0.3559956 0.030700482 -0.13269016
0002a0 7a 25 1c be 60 96 f6 bd 41 66 44 3e 17 6f 35 bd
       -0.15248671 -0.120404005 0.19179632 -0.044295397
0002b0 4a e5 e9 bc 6f 0a a2 3d b1 94 5d 3c 73 52 5b 3c
       -0.028551716 0.07912146 0.01352422 0.013386357
0002c0 6e 31 d1 bd 08 25 ee bc b6 9a cd bd c0 89 5a 3c
       -0.10214506 -0.029070392 -0.100392744 0.013338506
0002d0 4d bd e8 3e b0 4b 2e 3e 45 c8 05 bd 77 0d 80 bd
       0.45456925 0.1702106 -0.032661695 -0.06252568
0002e0 5a 21 82 3d c7 c3 07 3e ad d1 26 3e 2f ff 16 be
       0.063540176 0.13258277 0.16290922 -0.14745782
0002f0 93 24 b3 bd 70 04 1e be 32 4f 31 3d 17 60 0b be
       -0.0874721 -0.1543138 0.043288417 -0.13610874
000300 6a 33 b7 3d 2f 76 db bd 6d aa 35 3d d4 05 7e bc
       0.08945353 -0.10715901 0.044351984 -0.015504319
000310 cb a7 0a be 27 02 2c be b3 3d 07 be 2b 34 6f 3d
       -0.1354057 -0.16797696 -0.1320713 0.05839936
000320 83 31 c2 3d a0 b6 f2 3d f7 1e 66 3e 49 01 54 3e
       0.094821 0.11851239 0.2247275 0.20703615
000330 b3 6e d6 3d 56 0e bd bd 87 9e ab 3e a6 de 83 3d
       0.10470333 -0.0923125 0.33519384 0.06438951
000340 ca 65 99 3e be 41 d0 bd de 1b d4 3d 61 fd 17 bb
       0.2996047 -0.10168789 0.10356878 -0.0023191797
000350 a2 10 82 be bd 67 1a be f6 34 bc 3e 67 ee 82 3e
       -0.25403315 -0.15078636 0.36759156 0.25572512
000360 87 bc 71 bd ea 33 4e bd 73 aa 82 3d 09 27 be 3d
       -0.059017684 -0.050342478 0.06380167 0.09284789
000370 3a 73 fa bd f3 0b 11 bd b2 ae b6 bd d4 9c bc 3d
       -0.12229009 -0.035411786 -0.08920039 0.092096
000380 32 2a 02 3d 29 9e 7d 3d 9c 5e c7 3d 86 f9 de 3d
       0.03177852 0.06191841 0.09734842 0.108874366
000390 bb be 28 be 93 b8 6c 3c cb 38 8e 3d f7 df 8a 3d
       -0.16479008 0.014448303 0.06944426 0.06780999
0003a0 05 f7 a2 bd 22 ee 6d bd 50 89 14 be 1b 33 ce bc
       -0.079572715 -0.05808843 -0.14505506 -0.025170853
0003b0 ce 63 2c 3d 0c b1 5b 3d f0 74 09 be 61 e3 da bc
       0.04208737 0.053635642 -0.13423514 -0.02671975
0003c0 e2 69 26 bc 18 d7 47 bd 5c 56 8a bd 75 08 af bc
       -0.01015708 -0.048789114 -0.06754753 -0.021366337
0003d0 36 f9 76 3c df 6e 3c 3d 11 ec 0d be b9 3f a2 bd
       0.015074065 0.046004172 -0.13859583 -0.079223104
0003e0 69 9c 40 be ff 5d 4a be aa 58 d9 bd 89 d2 14 bd
       -0.18809666 -0.19762419 -0.106126145 -0.036333594
0003f0 3b a8 31 3c c5 5e a5 bd 9c 3c 4e 3d 3e 9a 91 bb
       0.010843332 -0.080747165 0.05035077 -0.004443436

bias f4 [128]
000000 51 59 26 3d 13 fe e1 be 37 24 9c be 30 7a a3 3d
       0.040612523 -0.44139156 -0.3049638 0.0798229
000010 0a e2 b4 3e 52 4e fa 3d 59 99 a1 3c dd 90 83 3f
       0.35328704 0.1222197 0.019726442 1.0278584
000020 32 ef 73 3d b4 be 99 bc f9 d9 05 3d 8e 3a 81 3e
       0.059554286 -0.018767692 0.032678578 0.25239986
000030 09 c6 48 3e ea 71 89 3d c8 54 c8 3e 0b 25 bc 3c
       0.19606794 0.067111805 0.39127183 0.022966882
000040 70 9f d3 3e ee f9 a6 3c 92 fe 34 3d 01 3e 8e bd
       0.4133258 0.020382848 0.04418809 -0.0694542
000050 d9 70 c2 be 81 79 b9 bd 4a 52 0a 3f 7c 1a d2 3d
       -0.3797672 -0.09056378 0.54031813 0.10258958
000060 c9 84 9e 3e cf d8 6d 3f 69 70 5f 3d 37 c3 7d bc
       0.30960682 0.9290895 0.054550562 -0.015488437
000070 01 2e f2 3d 33 a0 7d 3e 5d 65 48 3d cf 90 d5 bd
       0.11825181 0.24768142 0.048924793 -0.10428011
000080 37 22 1e bd f8 87 9b be 0f 37 3e 3f 7a 4e 60 3d
       -0.03860685 -0.30377173 0.7430276 0.05476234
000090 42 36 5a 3d a0 cc 83 be cc e3 ea 3e c5 25 30 3e
       0.0532744 -0.25742054 0.4587692 0.17201908
0000a0 26 ef 0c be 50 b7 ec 3c 2f 18 4d 3f ab f7 9b bc
       -0.13763103 0.028896004 0.80115026 -0.019038996
0000b0 02 45 c0 3e 98 dd 7e 3d ac c0 d4 3c d4 17 b7 3c
       0.3755265 0.062223047 0.02597078 0.02235023
0000c0 d7 7d 80 3e ae bc 70 bc 7b 4f 36 3f 0d 4e 1a 3d
       0.25096008 -0.014693422 0.7121503 0.03767209
0000d0 a8 19 73 3e dd a0 da 3c 4e 85 b7 3e 5d 46 3b 3d
       0.23740256 0.026688034 0.3584389 0.0457214
0000e0 3f 60 28 bd b6 a0 0b 3e 3b af 28 3d 97 6f 3a bf
       -0.041107412 0.13635525 0.041182738 -0.7282652
0000f0 a8 50 ed 3d 9f ce e0 3e 84 0e e6 bd 85 a1 b0 3e
       0.115876496 0.4390764 -0.112332374 0.3449823
000100 10 6a 4b 3f 13 38 ec 3e f4 65 7a be 57 96 a2 3b
       0.79458714 0.4613653 -0.24452955 0.0049617696
000110 dc a8 a0 bd be 06 f3 3d 77 ff 7b 3e 25 27 87 3c
       -0.07844707 0.1186652 0.24609171 0.016498158
000120 35 42 12 bd b1 18 f0 bc 1f 6a 16 bc 25 cb a7 bd
       -0.03570767 -0.029308649 -0.009180575 -0.081930436
000130 1a 7b 77 3e fc de cc 3d cb d4 54 3e af a5 1a bd
       0.24168053 0.100034684 0.20784299 -0.037755664
000140 c2 e3 f9 3e de 60 d4 3d ef 59 8c 3d 5c 6c 99 be
       0.48806578 0.103700384 0.06853091 -0.29965484
000150 33 07 6a bd 4a 40 50 3d d5 03 28 3d 2e 74 7c 3c
       -0.057135772 0.05084256 0.04101928 0.015408559
000160 f1 21 14 3e b2 07 ae bd 3d 46 5d 3e 28 c0 f6 3c
       0.14466073 -0.084975615 0.21608825 0.030120924
000170 11 76 9b bd 52 19 03 bf ca a4 f5 3d 08 30 1c 3f
       -0.07590879 -0.5121051 0.11994322 0.6101079
000180 fc de 02 3f 34 28 6d bd 47 33 30 be 6a 51 3f 3e
       0.511215 -0.05789967 -0.17207061 0.18683401
000190 54 7c 7c 3d 3b 0c 87 3d 1f 95 07 3f ca 28 0f 3b
       0.061642006 0.0659413 0.52961916 0.002184438
0001a0 57 6e 89 3e 95 ba b8 3d 9f 03 1a bf 1c df 16 bb
       0.26841995 0.09019963 -0.60161775 -0.0023021167
0001b0 98 6d a9 3d d1 46 e7 3c 7f 9d 1c bd 55 56 05 3e
       0.082728565 0.02823201 -0.038236137 0.13021214
0001c0 99 85 9c 3d a8 88 7e bc 31 35 fc bc f2 cb 99 3e
       0.07642669 -0.015535511 -0.030787082 0.3003841
0001d0 b3 91 d8 3e e4 31 79 3f 56 c4 85 be 72 74 bc be
       0.4229866 0.9734175 -0.26126355 -0.3680759
0001e0 de a9 79 3c 84 b5 72 3e 57 de f8 3d 0f eb 91 bb
       0.015238253 0.23702055 0.12151783 -0.00445307
0001f0 25 da db bc 26 a9 b3 3c 5d 1e c9 3c 9d 06 1e be
       -0.026837418 0.021931242 0.024550611 -0.1543221

weight f4 [256, 512]
000000 4c 22 2f bd f7 69 04 3d 2f 38 ae 3d 0c fa aa 3d
       -0.042757317 0.03232762 0.0850681 0.08348474
000010 f7 5e 3b bd 54 e5 54 3e e2 31 2c be 2e 7d 7b be
       -0.045744862 0.20790607 -0.16815904 -0.24559471
000020 12 f1 8d 3b 32 7a b0 bd e6 92 e3 3c 54 95 f3 bc
       0.0043317163 -0.08617057 0.027780008 -0.029734291
000030 64 fe 94 3d 6c 57 f1 3d 0b 83 0a 3d 52 7d 58 3d
       0.07275084 0.117842525 0.03381638 0.05285389
000040 25 0b 0c 3d 8c 31 14 be 3b 63 bd bd ab be 35 bc
       0.034190316 -0.14472026 -0.09247442 -0.011092822
000050 9e a4 6a bd 9f b3 f1 3b 57 d1 ad 3c 12 52 9c 3d
       -0.057285897 0.007376149 0.021217985 0.07632841
000060 73 91 d8 bc 5b 9f ae bc ce ea 1e bd ef 83 c8 3d
       -0.026436543 -0.021316221 -0.038798146 0.09790789
000070 c1 7f 04 be c3 25 85 bc e2 58 a9 bc ee e7 c5 bd
       -0.12939359 -0.016253358 -0.020672265 -0.09663378
000080 a8 7d 34 bb 38 f4 33 bd ee c0 9b 3d 3c 3a dc bc
       -0.0027540717 -0.043934077 0.07605158 -0.026883237
000090 91 37 02 be 8a 1a af bb e4 1f df bc a7 82 e6 bc
       -0.1271651 -0.00534374 -0.027236886 -0.028138472
0000a0 4b d9 17 3d 51 6f 1d bc 47 54 8b 3d 49 61 48 3d
       0.03707246 -0.009609059 0.06803184 0.048920903
0000b0 1a ac 30 bd 4a a8 9a bd c5 4e b5 3d 04 60 bf 3a
       -0.04313288 -0.0755163 0.08852915 0.0014600758
0000c0 86 04 5c be 5f 8d 35 3e 60 27 8e be 3d 88 bb 3d
       -0.214861 0.1772971 -0.27764416 0.09156845
0000d0 20 cd 11 3d c2 0a 16 3c 94 ba 85 3b f8 66 13 3c
       0.035596013 0.009157838 0.0040810797 0.008996718
0000e0 ad 5b 82 be 86 c3 66 be 5c a2 be bc 53 c4 d9 3d
       -0.25460568 -0.22535524 -0.023270778 0.10633149
0000f0 ff 34 4a 3d 4d 4e c5 3d 03 34 0c be 0d a3 57 bd
       0.049366947 0.09634075 -0.13691716 -0.05264573
000100 48 2a 17 bd 0b 44 f4 3d 53 8d 24 3e bd 7c 09 bd
       -0.036905557 0.11927041 0.16069536 -0.033566225
000110 e2 2d b6 3d 8e 41 a6 bd 9f 9a 15 3d 55 bf 41 3d
       0.0889547 -0.08117972 0.03652441 0.04730161
000120 9c d7 8a bd a0 0d de bc bd ca 4b bd 57 3a cf bc
       -0.067794055 -0.027106106 -0.049753893 -0.025296373
000130 cc 49 31 bd 4e 51 e6 3c 39 5c b6 3d 4b e2 3c bd
       -0.04328327 0.028114941 0.08904309 -0.046114247
000140 20 04 04 3a a1 a0 28 be de f1 20 bd ce 15 13 be
       0.0005036015 -0.16467525 -0.039293163 -0.14363787
000150 50 e3 04 be cb 05 b0 3b 68 74 0c be 12 ca 07 3e
       -0.12977338 0.0053717843 -0.1371628 0.13260677
000160 dc 2c 97 3d 9d 8e b5 3d ef 98 3e be 1a 04 c9 3c
       0.07381603 0.08865092 -0.18613027 0.024538089
000170 aa 62 00 bd b3 03 c4 bc e2 18 f2 bd 48 43 04 3e
       -0.031344093 -0.023927545 -0.11821152 0.12916291
000180 ff 49 a0 bd 80 49 07 be aa 64 34 be e0 47 9b bd
       -0.07826614 -0.13211632 -0.17616525 -0.075820684
000190 65 9c 86 be 71 fa d7 bd 75 01 d9 bd ae 1a 16 bd
       -0.26291195 -0.10545815 -0.10595981 -0.036646537
0001a0 d3 3c d1 3d 03 7a 20 3a a1 b3 ad 3d 0d 4a 6a bd
       0.102166794 0.0006121697 0.08481527 -0.057199527
0001b0 33 f4 02 3c 05 34 e8 bc 44 9b 02 3d ed 29 8a bc
       0.007992792 -0.028345117 0.031886354 -0.016865695
0001c0 78 02 75 bc 22 7f 63 3d 4c 9b ab 3d be ed 66 bd
       -0.014954202 0.055541165 0.0837923 -0.056379072
0001d0 85 1d 4c bd 55 0f 5d bc fd 9b a8 bd de 98 30 bd
       -0.04983284 -0.013492425 -0.082328774 -0.043114536
0001e0 96 38 11 be 47 9f 4a bc 5e 1b b5 bd 68 12 c3 3c
       -0.14181742 -0.012367076 -0.088431105 0.023812488
0001f0 71 7f fd 3d e5 3e af 3e d1 c2 4e bd 8a 43 6e be
       0.12377823 0.34227672 -0.05047876 -0.23267952
000200 62 2c 5b 3c 18 de 07 be c9 a8 d9 bc 0c e1 b7 bd
       0.013377281 -0.13268316 -0.02656974 -0.08978471
000210 02 96 af bd 8a 87 44 3d dc b7 0d be 44 8c 9e be
       -0.085735336 0.047980823 -0.13839668 -0.3096639
000220 82 61 a8 bd 20 bf 5a bd a9 b8 52 bb b8 42 ee 3d
       -0.08221723 -0.053404927 -0.0032153523 0.11633819
000230 3d 70 15 3d ad 75 72 bd 2f 67 67 3c 0e 0f 8c 3d
       0.036483992 -0.059194256 0.014123722 0.06838809
000240 b1 ea 1c bc f1 44 e9 bc 57 2d 39 bd 10 3b 0c bd
       -0.009577439 -0.028475257 -0.045209255 -0.034236014
000250 22 82 2d be 02 86 29 3d f5 da 21 3c 1f cf 72 3c
       -0.16944173 0.041387565 0.009878864 0.014819889
000260 bb e0 7d bd c4 22 4f bc af 06 bf 3b 00 a5 08 bd
       -0.061981898 -0.012642566 0.005829654 -0.03336048
000270 ae bb d4 bd d7 a1 e5 bd 84 a7 e0 bd a4 b7 44 3d
       -0.103873596 -0.11212509 -0.10969451 0.048026696
000280 40 61 a0 bc 64 db 44 be 86 1a fe bd 78 ab 5b 3d
       -0.019577622 -0.19224316 -0.12407403 0.053630322
000290 b3 b9 55 be e1 11 b8 bd f4 ee 18 3c ca 52 06 bc
       -0.2087162 -0.08987785 0.009334315 -0.008198449
0002a0 2a 47 43 be ef c4 91 bd 75 93 cb bd 1f fc 8f 3d
       -0.19070116 -0.0711764 -0.099402346 0.0703051
0002b0 09 ec dc 3c 61 1d 0d 3d 67 79 2d bd e1 05 b0 bb
       0.02696802 0.034451846 -0.042352106 -0.0053717946
0002c0 6d 73 b3 bd bc ee 6d bc e8 b3 b7 bb e2 ef 27 bd
       -0.0876225 -0.014522251 -0.0056061633 -0.041000254
0002d0 ee 58 3d bc cb 8d 63 be 2c 8a 36 be 5b 95 43 3e
       -0.011556847 -0.22222058 -0.17826146 0.19099943
0002e0 80 88 a6 3c 57 67 34 bd f4 a3 08 3d 11 6b ab bc
       0.02032876 -0.044043865 0.033359483 -0.020925077
0002f0 34 fb 6a 3d 20 eb 17 bd 7a e0 c1 3c 36 0a 99 3d
       0.057368472 -0.037089467 0.02366661 0.07472651
000300 08 b4 ae bd 3a 4c ee bd 57 8b 8d 3c ca f1 d3 3d
       -0.08530432 -0.11635633 0.017278356 0.10348852
000310 52 fc b5 bd f1 97 d7 3a 5d c6 15 3d 40 60 37 3b
       -0.08886017 0.001644848 0.036566127 0.0027980953
000320 6e 21 8d bd 80 1b 90 be 26 18 7a be bc b4 b6 bd
       -0.06891142 -0.2814598 -0.24423274 -0.08921191
000330 7e 9c 81 bc 48 f4 94 bc 0c 06 8f bd 0c 46 2c bd
       -0.015821692 -0.018182889 -0.06983575 -0.04205899
000340 3a 47 98 bd 5a 11 3b be 15 3b a1 bd f6 e8 a7 3d
       -0.074354604 -0.18268338 -0.07872597 0.08198731
000350 df e4 bb 3c 55 d4 f4 bc 3f 6b 08 3d 84 f6 8e bc
       0.022936283 -0.029886404 0.033305403 -0.017451532
000360 f9 96 1b 3d 97 f2 d1 bd 69 22 85 bd ab fb 61 be
       0.037985776 -0.102513485 -0.06500704 -0.2206866
000370 da bb d2 3d ef 15 40 bd eb a2 14 bd 07 ee 27 bd
       0.10289736 -0.046895918 -0.036288183 -0.040998485
000380 f4 b2 09 bd 9c 03 fd bd eb 05 44 be d8 d2 3e bc
       -0.03361793 -0.12354204 -0.19142883 -0.011646949
000390 9c 98 81 3c 0e eb a9 3d 22 94 ab 3d e7 c8 99 3d
       0.01581984 0.08296786 0.083778635 0.07509022
0003a0 3d 72 5c 3d 11 75 9e 3d 69 60 a3 3d 68 6e cb 3d
       0.053819884 0.077371724 0.07977373 0.09933168
0003b0 1a 33 9b bc 46 59 32 be 8a cb aa bc 61 17 eb bd
       -0.018945266 -0.17416868 -0.020849008 -0.114790685
0003c0 59 7e 82 be b5 0d ff bd 65 43 17 be ad bc 20 3e
       -0.2548702 -0.12453786 -0.14771803 0.15696974
0003d0 49 75 19 bc 62 9f af bc ea 48 ea 3c 10 c1 04 be
       -0.009366342 -0.021438304 0.028599221 -0.12964272
0003e0 32 3b c0 3c fe e3 17 3d b3 99 d8 bc ea c9 0d bd
       0.023465727 0.037082665 -0.026440477 -0.03461639
0003f0 ce 33 c6 3c 87 6a 02 3e 11 33 02 be ea 4a 95 bd
       0.024194624 0.1273595 -0.12714793 -0.07289679

bias f4 [256]
000000 21 05 01 3e 7d 3e 89 3e 14 9c 65 3d da 98 ba 3c
       0.12599613 0.26805487 0.05605705 0.022777963
000010 e1 f3 07 3d c2 11 3a 3e 6e ae ad 3e e3 b9 b2 3e
       0.033191565 0.18170837 0.33922142 0.34907445
000020 d6 9b 8a 3d 97 66 64 bd 5c 19 ad 3e 2c ee 82 3d
       0.067680046 -0.0557619 0.3380841 0.06393084
000030 09 d6 81 3d 47 5e b8 3d aa 2f 5d bc fd 5f 10 3e
       0.06339652 0.09002357 -0.0135001335 0.14099117
000040 4f 31 2b 3f 41 ff 90 3e cb a8 0c 3d 2a e9 9a 3d
       0.66872114 0.28319743 0.03434066 0.07564004
000050 56 ad c8 bd 55 2e 1f 3d 1b 91 eb bd b4 d1 08 3d
       -0.09798686 0.038862545 -0.11502286 0.033403113
000060 96 ea 28 3e 77 6d ae 3d 6d 04 c8 3e 32 e6 a8 3d
       0.16495737 0.085169725 0.39065877 0.08247031
000070 89 f8 0f 3d 97 02 2f 3e bd 29 13 3d d8 90 e7 bc
       0.03514913 0.17090832 0.035928477 -0.02826731
000080 5d a9 71 3d 46 11 47 bd 43 9b d0 bd 66 16 3c 3d
       0.058999408 -0.048600458 -0.10185864 0.0459198
000090 40 f9 9c 3d 0d fe b6 3d 11 d3 c2 bd 69 2f 2a 3f
       0.07664728 0.08935175 -0.09512914 0.6647859
0000a0 65 d6 74 3d 0a 76 af 3d b5 9d 80 bd 01 a2 da 3d
       0.059774775 0.08567436 -0.0628008 0.10675431
0000b0 62 a2 19 3e 17 90 b6 3d da 39 63 3d 7b e8 51 3e
       0.1500335 0.08914202 0.055475093 0.2049884
0000c0 ca 6b d0 3d d7 27 07 3e 5d 76 8b 3a 0f 50 01 3d
       0.10176809 0.13198791 0.0010640133 0.03157049
0000d0 b3 53 27 3e 89 bc ad 3d 28 83 3d 3d 0c 76 6d 3d
       0.16340522 0.08483226 0.04626766 0.057973906
0000e0 06 33 58 3d 6f c4 54 bd 2c d5 bd 3d bc 43 ad 3d
       0.052783035 -0.051945146 0.09269175 0.08460185
0000f0 48 b8 b4 3e 1f 8a 45 3f f7 dd 69 3d 40 03 d5 3d
       0.35296845 0.7716388 0.057096448 0.104010105
000100 41 49 16 3e c9 ba 5d 3d 86 f3 16 3d 0e 29 1d 3e
       0.14676382 0.05413321 0.036853336 0.15347692
000110 45 13 5e 3d 4f e4 22 3e ed 9b 6b 3d 2a 0e 5e 3b
       0.054217596 0.15907405 0.05752175 0.0033882954
000120 44 d0 d6 3e c7 3b ac 3c 9d ed 2c 3e 5d 75 2f 3e
       0.4195577 0.021024598 0.16887517 0.17134614
000130 bf 06 6e 3d ce a1 63 3d 45 ad e2 3e 97 41 05 3e
       0.058111902 0.05557423 0.4427282 0.13013302
000140 75 c1 ad 3e 22 0c 36 3e 79 71 10 bd 76 00 37 3e
       0.33936659 0.17778066 -0.035264466 0.1787127
000150 70 c9 b4 3d 34 8b 46 be bc f2 03 3d 39 58 42 3e
       0.08827484 -0.1938904 0.03221391 0.18978967
000160 fd c5 f5 3d 0a 5a 6a 3d fa 09 c9 3c be 7f 51 3d
       0.12000654 0.057214774 0.02454089 0.051147215
000170 17 fc 48 bd 0f f0 99 3d c4 7c b7 3e 5c 21 b7 bd
       -0.049068537 0.07516491 0.35837376 -0.0894191
000180 39 8e f5 bd e8 69 84 3e a8 29 f6 3c 17 ab 00 3f
       -0.119900174 0.2586205 0.03004916 0.5026106
000190 f5 73 3f bd 4c a8 87 3d 40 91 95 3d c9 0b d4 3d
       -0.046741445 0.06623897 0.07303095 0.1035381
0001a0 a8 22 ae 3d 3a 56 5e 3d 44 0e 4d bd 45 3a 45 3c
       0.08502704 0.05428145 -0.050062433 0.012037818
0001b0 40 5d 1b 3d 26 aa 92 3d 84 20 3b 3d 05 74 df 3d
       0.037930727 0.071613595 0.045685306 0.10910801
0001c0 ad cb 2e 3d e4 7b 10 3d 6b ae 77 3c 97 eb d2 3d
       0.04267471 0.0352744 0.015117268 0.102988414
0001d0 65 72 fb 3d 7e 40 99 3d f4 57 94 bc 5c d7 81 3e
       0.122776784 0.07483004 -0.018108346 0.2535962
0001e0 9e 82 d4 3d 17 2b 12 3e 2d 8e e5 3e eb 30 b4 3d
       0.10376476 0.1427425 0.44835034 0.08798393
0001f0 ad e4 71 3d 87 07 51 be bf 59 95 3d 45 94 5e bc
       0.059055973 -0.20413028 0.07292508 -0.013585155
000200 6e 27 10 bd 55 78 0e 3e ee ab 34 3d 06 31 95 3f
       -0.035193853 0.1391309 0.044109277 1.1655586
000210 62 bf 82 3d ea e6 12 bd 80 f2 3b 3d bc 71 38 3d
       0.063841596 -0.035864748 0.045885563 0.04503034
000220 5b fa dc 3c 74 73 3e 3e b6 6d f1 3d 81 03 d3 3d
       0.026974848 0.1859873 0.11788504 0.10303403
000230 93 f2 80 3d 78 ba cb 3c b0 a0 ea 3d b4 98 66 3d
       0.06296267 0.024869189 0.1145643 0.056297973
000240 05 81 4b 3d 5f 75 92 3e d2 a1 be bd 21 58 40 3d
       0.04968359 0.28605172 -0.093082085 0.046959046
000250 ea c2 58 3d 68 a5 1e 3d 85 a8 69 3d 29 f5 c5 3e
       0.05292026 0.038731962 0.05704548 0.38663605
000260 71 8a 03 3d bd 74 88 3c c9 c2 15 3f f0 34 39 3d
       0.03211445 0.016657228 0.58500344 0.0452165
000270 ca 0e 87 3f 80 a2 62 3d 3a 99 67 3d 84 6e 7c 3c
       1.0551388 0.055330753 0.056542613 0.015407208
000280 3f 2c de bd 05 1b 5a 3d f6 db 5f 3d cd 89 a4 3c
       -0.10848283 0.053248424 0.05465313 0.02008524
000290 0c 1e 72 3d 52 36 f6 3d 12 bf 34 3d c1 68 57 3d
       0.059110686 0.120220795 0.04412753 0.052590135
0002a0 43 4b ca 3d d3 00 74 3d 50 cb b4 3d 26 54 32 3e
       0.09877636 0.0595711 0.08827841 0.17414913
0002b0 b3 9f 51 3d 09 26 2b 3d df 71 19 3e 2d 25 89 3d
       0.05117769 0.04178432 0.14984845 0.06696544
0002c0 da f0 f7 3d c8 2d 1c bd 5e ee 8c 3d 21 28 2f 3d
       0.12106486 -0.038129598 0.068814024 0.04276288
0002d0 69 8d 14 be e8 bd fb bc 5e 72 86 bd 49 f9 94 3d
       -0.14507069 -0.030730203 -0.065647826 0.0727411
0002e0 52 70 07 3d d5 27 8c bc 59 e9 5c 3f e6 49 8d bd
       0.0330661 -0.017108837 0.8629356 -0.06898861
0002f0 b8 3a ae 3d d5 22 24 3d f7 01 4a 3d 19 54 a5 3e
       0.085072935 0.04007228 0.04931828 0.32290724
000300 5d 66 d5 3d e4 9f f1 3e 0f 32 04 3d 36 71 73 3d
       0.10419915 0.471923 0.032274302 0.05943414
000310 5a cb b8 bc c1 8e f5 3d 56 ca 9c b9 62 2c da 3c
       -0.022557903 0.11990119 -0.0002990539 0.026632491
000320 63 d4 67 3d a2 9c 1e 3c 23 20 8a bd 70 65 08 bd
       0.056599032 0.009680899 -0.06744411 -0.033299863
000330 bb d1 2d 3e 80 63 38 bc 18 dc 48 3d 17 9d c8 3d
       0.16974537 -0.011254191 0.049038023 0.097955875
000340 83 a9 d4 3e 7f 9c a2 bc 32 03 8d bd df b2 ff 3d
       0.41535577 -0.019850014 -0.06885375 0.12485289
000350 8d 9d 92 3a 20 07 da 3d c8 95 96 3f b5 88 63 bd
       0.001118587 0.1064589 1.176446 -0.055550296
000360 10 95 14 3e fd fd f5 3c a5 7a 1f 3e ae d8 27 3f
       0.14509988 0.030028338 0.15574129 0.65565
000370 c8 fd d6 bc 3c 02 cb 3e 8e af a9 bd a0 51 93 3d
       -0.02624406 0.39650142 -0.082854375 0.07193303
000380 07 0e ab 3d e0 de 3d 3d 3e e3 02 3e 77 42 c6 3d
       0.08352285 0.04635513 0.12781999 0.09680646
000390 8b 54 5e 3d c6 6c 26 3f c5 dd d3 3c df 56 b5 3d
       0.054279845 0.65009725 0.025862584 0.0885446
0003a0 a1 02 ba 3e 57 28 cc 3d 7b 2b 8f 3d 91 f8 01 3e
       0.3633013 0.09968632 0.06990715 0.12692477
0003b0 c5 5e 19 3d 61 15 20 3d e2 d2 ab 3d f8 01 e2 3d
       0.037443895 0.03908289 0.08389832 0.11035532
0003c0 7e bd 1a 3f ae 52 8a 3d 98 85 c3 3d ed ec 10 3d
       0.6044539 0.06754051 0.09546965 0.0353822
0003d0 7b 2a 1e 3f 47 32 68 3d a8 3b a2 3d f6 59 ad 3c
       0.6178357 0.056688573 0.07921535 0.02116106
0003e0 34 8c d6 bd b8 28 1c 3e a4 54 8f 3e 83 87 0d 3d
       -0.104759604 0.15249908 0.27994263 0.034553062
0003f0 bb f5 a3 bc ea 82 a0 3e e3 9d 13 3d 5d b4 7a 3d
       -0.020014634 0.3134988 0.036039244 0.061207164
