model/pnet_model.pt (torch, 32674 bytes, 11 tensors)

pre_layer.0.weight f4 [10, 3, 3, 3]
-3.2483115 7.390361 -6.2675076 0.76605374 11.39676 -1.415886 -7.62592 1.601575
-7.659434 0.3224239 2.3199658 1.2936023 0.61019135 3.3026316 2.1736572 0.6964689
3.484383 2.6364462 2.9657133 -9.732877 5.6779466 -1.0029022 -14.966757 -0.19343477
6.6593547 -5.0993495 5.0440187 -0.23486197 -4.45034 -2.0502973 1.8543948 -0.78867936
-0.13449219 2.5858607 2.1410427 1.6979587 2.060875 2.5600636 5.18302 -0.4004786
-0.92839533 -0.43267736 -2.9468493 -2.2783585 -3.5045362 -0.6974783 -3.519704 -9.148535
2.4569862 1.3775399 -1.2078291 2.9779634 4.095551 3.542675 -2.3265436 -1.8742766
-4.4708223 -3.8942602 0.4000776 2.575037 -0.7778429 3.6489294 7.3600965 -0.18798724
3.5401623 3.1147017 -3.6458063 1.2270465 0.153074 -1.1949242 -1.5679821 5.1622596
3.382302 0.45596543 -0.7064584 5.0667477 0.15575504 -6.238424 4.926084 -5.8794837
-8.582794 -5.306939 2.3101707 -2.3329434 -2.470715 -0.5058552 -3.803982 7.7134976
5.2878504 -0.97864777 -5.959969 9.352396 2.693229 -6.4240956 2.4028273 2.4508333
-6.377542 -0.55229044 -1.0588691 3.0916815 -1.1054448 -3.9799528 4.657598 0.8702897
2.784288 -4.0695424 -4.758276 2.0691752 0.36764288 1.3709701 -1.5665227 0.32515097
0.47328424 -1.038511 -2.1151724 0.114745736 0.55600595 -2.7279346 0.32094455 3.3527088
-2.0965328 -0.10351199 3.3594153 -1.9870346 -0.57640964 2.897693 1.3895905 -3.4555068
-5.4564734 2.7010314 0.7034214 0.8377399 5.405182 -0.107418045 -3.8261325 -2.110572
0.8206424 0.5266653 1.7851642 0.20672187 0.6743275 0.3050954 -2.311073 -0.5901364
-2.4233534 -1.946241 -1.312911 1.3586825 -1.7371284 0.2556737 4.3311925 -0.6271405
1.9403523 8.240565 1.630432 -0.18038568 0.17348059 -1.0704353 -2.0688937 -4.384584
-1.003566 -1.3676497 2.3904119 -1.3998015 1.6636913 2.6557941 -0.7586995 1.3565158
0.22853 -1.3718541 3.313779 12.325447 -1.6468643 4.241123 1.2390777 -12.583123
-10.672943 4.1948266 -6.1112638 -6.2478814 -7.8471775 -5.2263646 -2.22607 -2.7969325
8.725634 10.780378 -4.2508965 3.6879842 2.3294754 -0.6887593 -1.0620756 1.5478863
0.008872219 0.58442485 0.6283959 0.043092854 -0.7988907 -1.61658 0.77031076 -0.8279893
-0.0086588785 2.8155124 0.71893245 -0.44319487 0.92116916 -0.5674351 -2.0352724 -1.2727737
0.5665639 -1.723558 0.09803285 1.4564027 -0.13668628 -2.777102 -1.4925411 2.5853562
-1.6388147 -0.1912406 0.8512289 -3.0467744 -0.12898135 1.606225 0.120058216 1.0412861
-2.1161976 5.5843053 1.0512682 0.6669986 3.490287 -0.47036356 -1.2644558 4.7638745
0.35627642 -2.8067431 -4.5470285 -3.257068 -1.7448978 -1.7338096 0.6436292 2.0792856
-4.2805586 1.1449225 6.5528173 -1.7868398 -1.1361382 0.14323083 1.1740038 1.0008135
0.8305333 1.3550099 -0.04339973 -0.75304806 0.68814534 -0.267226 -2.338619 -0.18068843
00000000: 56e4 4fc0 d67d ec40 6c8f c8c0 191c 443f
00000010: 2159 3641 c13b b5bf 8907 f4c0 6900 cd3f
00000020: 151a f5c0 bf14 a53e 527a 1440 c394 a53f
00000030: 8035 1c3f 515e 5340 331d 0b40 c94b 323f
00000040: 2200 5f40 89bb 2840 3fce 3d40 ddb9 1bc1
00000050: bdb1 b540 195f 80bf d677 6fc1 c413 46be
00000060: 6f19 d540 df2d a3c0 9a68 a140 a87f 70be
00000070: 2f69 8ec0 1238 03c0 cf5c ed3f e4e6 49bf
00000080: 52b8 09be be7e 2540 d806 0940 b656 d93f
00000090: 60e5 0340 15d8 2340 4ddb a540 880b cdbe
000000a0: 51ab 6dbf e387 ddbe 2e99 3cc0 a0d0 11c0
000000b0: 524a 60c0 f08d 32bf d542 61c0 6660 12c1
000000c0: 433f 1d40 3a53 b03f 259a 9abf f496 3e40
000000d0: c10e 8340 30bb 6240 17e6 14c0 4ce8 efbf
000000e0: fa10 8fc0 8f3b 79c0 f9d6 cc3e 68cd 2440
000000f0: b620 47bf 0f88 6940 e985 eb40 ba7f 40be
00000100: 0592 6240 4657 4740 e454 69c0 dc0f 9d3f
00000110: 6ebf 1c3e 47f3 98bf a3b3 c8bf 3b31 a540
00000120: a377 5840 4d74 e93e 75da 34bf cc22 a240
00000130: 407e 1f3e 2ba1 c7c0 7ba2 9d40 bb24 bcc0
00000140: 2053 09c1 72d2 a9c0 d6d9 1340 f24e 15c0
00000150: 3220 1ec0 ba7f 01bf 7174 73c0 f9d4 f640
00000160: 1236 a940 a988 7abf 11b8 bec0 6aa3 1541
00000170: dd5d 2c40 3192 cdc0 ecc7 1940 74da 1c40
00000180: d314 ccc0 e862 0dbf 0689 87bf 1cde 4540
00000190: 377f 8dbf 8cb7 7ec0 0b0b 9540 4ecb 5e3f
000001a0: c631 3240 b139 82c0 cc43 98c0 5e6d 0440
000001b0: b03b bc3e f37b af3f d183 c8bf 307a a63e
000001c0: 5052 f23e eeed 84bf fc5e 07c0 d0ff ea3d
000001d0: 6856 0e3f 7b96 2ec0 d852 a43e c892 5640
000001e0: 982d 06c0 18fe d3bd a900 5740 2657 febf
000001f0: 958f 13bf cd73 3940 1ade b13f 0627 5dc0
00000200: 6e9b aec0 b3dd 2c40 6d13 343f 1f76 563f
00000210: 40f7 ac40 fefd dbbd 5bdf 74c0 9d13 07c0
00000220: 9f15 523f 89d3 063f 4380 e43f e6ae 533e
00000230: baa0 2c3f 7735 9c3e 9fe8 13c0 2e13 17bf
00000240: 3918 1bc0 6d1e f9bf 780d a8bf 4fe9 ad3f
00000250: 395a debf aae7 823e 2199 8a40 488c 20bf
00000260: 775d f83f 5bd9 0341 ffb1 d03f 06b7 38be
00000270: e5a4 313e 0604 89bf c168 04c0 834e 8cc0
00000280: da74 80bf 250f afbf 82fc 1840 b22c b3bf
00000290: d6f3 d43f 88f8 2940 213a 42bf 4fa2 ad3f
000002a0: c503 6a3e ea98 afbf f514 5440 0835 4541
000002b0: 73cc d2bf 48b7 8740 199a 9e3f 7954 49c1
000002c0: 60c4 2ac1 053c 8640 798f c3c0 a5ee c7c0
000002d0: 141c fbc0 613e a7c0 ee77 0ec0 f100 33c0
000002e0: 329c 0b41 6e7c 2c41 5807 88c0 ef07 6c40
000002f0: 2016 1540 8852 30bf 18f2 87bf 2321 c63f
00000300: c95c 113c de9c 153f 8ede 203f 2282 303d
00000310: 1a84 4cbf 18ec cebf 1633 453f 1bf7 53bf
00000320: f8dd 0dbc 5b31 3440 f50b 383f 70ea e2be
00000330: bed1 6b3f 6d43 11bf e741 02c0 40ea a2bf
00000340: 550a 113f 8c9d dcbf 72c5 c83d 676b ba3f
00000350: 7df7 0bbe 0abc 31c0 960b bfbf 7a76 2540
00000360: aec4 d1bf 93d4 43be 23ea 593f 5afe 42c0
00000370: b013 04be c898 cd3f 15e1 f53d dd48 853f
00000380: c86f 07c0 a1b2 b240 f58f 863f 6cc0 2a3f
00000390: dd60 5f40 7ed3 f0be b0d9 a1bf a971 9840
000003a0: dd69 b63e aea1 33c0 4281 91c0 cd73 50c0
000003b0: d058 dfbf 79ed ddbf e2c4 243f 0413 0540
000003c0: 56fa 88c0 d28c 923f aeb0 d140 2bb7 e4bf
000003d0: fa6c 91bf 1aab 123e c245 963f a81a 803f
000003e0: d59d 543f f770 ad3f eac3 31bd c2c7 40bf
000003f0: 4b2a 303f d9d1 88be efab 15c0 6306 39be

pre_layer.0.bias f4 [10]
0.59463984 -0.061593477 0.32889023 0.24964175 -2.2496645 -5.0681796 -0.07029293 -2.512272
-2.662595 0.025185283
00000000: 513a 183f 7149 7cbd 4d64 a83e 16a2 7f3e
00000010: 81fa 0fc0 872e a2c0 bdf5 8fbd 10c9 20c0
00000020: f567 2ac0 5e51 ce3c

pre_layer.3.weight f4 [16, 10, 3, 3]
-0.3904424 -1.5498099 -0.98579544 -0.56435233 0.649276 -1.6231294 1.0026673 1.0727252
-0.69683254 -0.36997566 -0.93968946 2.1666582 1.3073347 -0.11908769 0.23643973 0.105862886
0.17614684 0.07121345 -0.39585313 -0.26793975 -1.8364098 0.09926404 0.58269733 -0.29927316
-0.3246709 -0.63320243 -0.63383746 -1.2937114 -3.5685194 -5.210553 -0.42995697 0.09373873
0.84194773 0.0628413 -0.024723642 0.049147263 2.1802895 1.1192476 -17.79767 2.9327934
7.1138597 -4.7994986 -2.3447878 1.6605159 -1.0484133 11.721297 -0.8014141 -20.680227
-0.29354632 3.9356604 2.6614983 0.22900705 6.749973 0.6165223 0.5627713 -1.3463038
-3.8294122 -0.14852895 -0.24819557 -0.80369383 -0.6667621 -0.29336047 -0.6214795 0.39712366
5.6109476 -8.086918 -0.3886482 2.9763753 -2.6041865 4.580272 -0.5966261 -2.3651242
2.1645586 -0.7168054 -5.565456 -0.99653476 1.8833578 0.649201 0.7062309 -2.662769
4.6664968 17.414244 5.253584 -1.655458 -3.3868604 -3.98282 0.71735066 4.9515357
-7.263544 -2.7725153 -0.27157056 -1.3109766 -0.07873708 -1.3720578 1.2463213 -0.53822726
-1.4176432 1.7485807 0.1386952 -1.163185 1.7308933 0.21759127 -0.2664417 1.0059274
-0.8172196 0.22395559 -0.4986671 0.017838508 -1.2336962 -1.079282 -0.01957505 -0.73538053
0.104427576 0.43932125 -0.25623658 0.63910383 0.15322293 -1.5766779 -2.5013275 -1.3884201
-0.3220818 0.08549994 0.90725476 -0.2485432 0.052952684 0.20347685 -7.1082335 -1.0520487
-1.1202445 -0.58989763 4.660784 2.5831022 1.2208874 -0.56642616 1.9682957 17.786062
-3.5687058 -10.260454 3.664849 -5.1512218 -3.8359501 0.59822106 3.1534667 4.4743423
-1.0631824 -1.3359044 -1.1913543 -0.91258985 -0.69290584 -0.26587328 -0.44553098 0.15995277
-0.20169795 -11.8233795 6.630636 -2.7220938 -2.0115035 6.9570255 -1.689603 -0.29815185
3.264326 -2.6850657 -7.7863674 0.19703902 -1.9756618 -2.2860622 2.0714495 2.027371
-1.4682245 0.1172889 -0.93307453 -17.3911 9.168482 14.215921 -3.8975818 -2.230291
-0.088191554 4.5116897 -2.3581655 3.586186 0.13872269 -0.13857698 -0.6681913 -1.9229804
-2.5293155 -1.8264971 1.4453188 -2.7319725 -0.047495123 0.65062517 -0.5399914 1.5522666
0.1377027 0.6699263 -0.29165068 2.0241127 0.13937525 -1.9655542 -0.83984417 -0.8756612
-0.9257204 -1.5589979 -0.9377935 -0.71834403 0.16932254 -1.9522643 1.6649917 -0.38851508
-0.008657722 -0.5872756 -0.15287502 0.36197641 0.403616 1.7647091 -0.9217285 -0.16905963
1.5304067 -1.3072984 0.07817126 3.5380416 -1.6147232 0.318088 9.587768 0.30124018
-8.588173 10.862582 7.2652984 6.350804 0.8595357 1.9391812 4.4550147 -12.668501
-8.133957 -3.1429143 -0.5649953 -0.14453505 -0.9531599 -1.6520888 -0.7576402 -0.958202
-0.6976194 -1.6284169 0.46477902 -5.8404 1.60494 -1.4701577 -8.54205 4.668895
7.228418 -12.583577 5.493473 11.6569195 -4.479028 0.7617051 -2.058116 -3.1295378
00000000: 11e8 c7be 2c60 c6bf 175d 7cbf 6579 10bf
00000010: f436 263f b4c2 cfbf 6757 803f 0f4f 893f
00000020: 9e63 32bf 736d bdbe 7d8f 70bf 87aa 0a40
00000030: be56 a73f 3fe4 f3bd 421d 723e a4ce d83d
00000040: d65f 343e 5bd8 913d 43ad cabe 662f 89be
00000050: 7a0f ebbf f24a cb3d a72b 153f 553a 99be
00000060: 443b a6be 8e19 22bf 2c43 22bf 5698 a5bf
00000070: 9f62 64c0 dabc a6c0 5223 dcbe 17fa bf3d
00000080: e389 573f f1b2 803d 3c89 cabc a44e 493d
00000090: dd89 0b40 8143 8f3f a161 8ec1 e3b2 3b40
000000a0: bda4 e340 7e95 99c0 0111 16c0 c98b d43f
000000b0: 6832 86bf 6f8a 3b41 7929 4dbf 1b71 a5c1
000000c0: b44b 96be dce1 7b40 fd55 2a40 d380 6a3e
000000d0: c7ff d740 68d4 1d3f c811 103f af53 acbf
000000e0: 1715 75c0 f917 18be fb26 7ebe e1be 4dbf
000000f0: ecb0 2abf 5833 96be 4819 1fbf cb53 cb3e
00000100: e28c b340 0464 01c1 e6fc c6be ef7c 3e40
00000110: feaa 26c0 9791 9240 7dbc 18bf 325e 17c0
00000120: 2188 0a40 8f80 37bf 3718 b2c0 e71c 7fbf
00000130: de11 f13f 0932 263f 8ccb 343f cf6a 2ac0
00000140: f153 9540 5f50 8b41 5c1d a840 0ce6 d3bf
00000150: 52c2 58c0 86e6 7ec0 4ba4 373f fb72 9e40
00000160: f46e e8c0 e470 31c0 4c0b 8bbe 15ce a7bf
00000170: e840 a1bd 979f afbf 7587 9f3f 43c9 09bf
00000180: 5575 b5bf 7ed1 df3f 1d06 0e3e 3fe3 94bf
00000190: e98d dd3f 3fd0 5e3e 0c6b 88be 3bc2 803f
000001a0: 4e35 51bf 9d54 653e 4b51 ffbe 1022 923c
000001b0: c2e9 9dbf ea25 8abf db5b a0bc e641 3cbf
000001c0: 20de d53d b7ee e03e 7131 83be 4f9c 233f
000001d0: 79e6 1c3e 95d0 c9bf c015 20c0 c0b7 b1bf
000001e0: e8e7 a4be 981a af3d d941 683f 1c82 7ebe
000001f0: eae4 583d 3c5c 503e a676 e3c0 88a9 86bf
00000200: 2c64 8fbf 8803 17bf 2425 9540 8c51 2540
00000210: 0a46 9c3f 4e01 11bf 1df1 fb3f db49 8e41
00000220: ad65 64c0 d22a 24c1 e38c 6a40 cfd6 a4c0
00000230: 3580 75c0 0425 193f 66d2 4940 d02d 8f40
00000240: 5c16 88bf eafe aabf 4c7e 98bf 7d9f 69bf
00000250: 4762 31bf 8b20 88be a31c e4be a9ca 233e
00000260: e889 4ebe 902c 3dc1 2c2e d440 c936 2ec0
00000270: 79bc 00c0 f49f de40 e944 d8bf 5ca7 98be
00000280: b8ea 5040 1ed8 2bc0 ec29 f9c0 99c4 493e
00000290: 7ce2 fcbf d84e 12c0 a192 0440 72c0 0140
000002a0: c8ee bbbf 2a35 f03d f9dd 6ebf f920 8bc1
000002b0: 1ab2 1241 6a74 6341 fb71 79c0 16bd 0ec0
000002c0: c69d b4bd c35f 9040 2fec 16c0 1284 6540
000002d0: 520d 0e3e 20e7 0dbe 960e 2bbf 3924 f6bf
000002e0: 4ee0 21c0 a8ca e9bf 3500 b93f a3d8 2ec0
000002f0: 3f8a 42bd 5f8f 263f e03c 0abf acb0 c63f
00000300: f001 0d3e 4a80 2b3f 3d53 95be 108b 0140
00000310: 63b8 0e3e 4897 fbbf 0700 57bf 552b 60bf
00000320: 03fc 6cbf 3e8d c7bf 3c13 70bf 65e5 37bf
00000330: e362 2d3e cce3 f9bf 731e d53f 73eb c6be
00000340: 1ed9 0dbc b257 16bf 458b 1cbe f954 b93e
00000350: c2a6 ce3e fde1 e13f 66f6 6bbf f81d 2dbe
00000360: 5ee4 c33f 8e55 a7bf 4118 a03d 466f 6240
00000370: 40af cebf 6edc a23e 7f67 1941 273c 9a3e
00000380: 2869 09c1 23cd 2d41 537d e840 c939 cb40
00000390: 880a 5c3f 1737 f83f 7b8f 8e40 2eb2 4ac1
000003a0: b024 02c1 8225 49c0 88a3 10bf ff00 14be
000003b0: 4a02 74bf a577 d3bf b5f4 41bf ba4c 75bf
000003c0: 2f97 32bf f76f d0bf 84f7 ed3e 8fe4 bac0
000003d0: ad6e cd3f 212e bcbf 3dac 08c1 9667 9540
000003e0: 334f e740 5556 49c1 88ca af40 be82 3a41
000003f0: 3354 8fc0 1bff 423f 2cb8 03c0 594a 48c0

pre_layer.3.bias f4 [16]
3.0561855 1.6963208 5.0153084 6.441763 -5.630167 -4.2506332 -3.497623 -8.545643
-4.719655 0.4883523 -2.2130744 -5.0217047 -6.0319996 -5.9571953 -14.082082 -3.9703512
00000000: 8b98 4340 0a21 d93f 687d a040 ec22 ce40
00000010: 542a b4c0 3005 88c0 0ed9 5fc0 f4ba 08c1
00000020: 6a07 97c0 5009 fa3e 03a3 0dc0 ceb1 a0c0
00000030: 2406 c1c0 58a1 bec0 3550 61c1 3c1a 7ec0

pre_layer.5.weight f4 [32, 16, 3, 3]
-0.0404793 -0.11285015 0.16282673 0.0008753086 -0.11087354 0.0060748393 0.07968147 -0.03992537
-0.118230246 0.06664726 -0.07355106 -0.0041467813 -0.10169354 0.004806853 0.054408435 0.3431141
0.16636892 0.10740063 -0.062466905 -0.17079233 0.051376145 -0.11328556 -0.15681191 0.027768014
-0.08215362 -0.14604664 0.04992486 0.16299912 0.079181075 -0.057126194 -0.08055859 0.03625654
0.07447563 0.12726258 -0.012719948 0.24381498 -0.30453965 0.16467111 0.44272116 0.21394797
-0.17690164 0.10997562 0.18243848 0.25232747 0.17684612 0.04666938 0.082242295 -0.38609162
0.049600832 -0.4714813 0.36611885 0.46245396 -0.22786587 0.19552168 -0.07764731 0.30867016
0.8385125 0.34778258 0.18799518 0.33117053 0.18936616 -0.20765446 0.22621313 -0.98283935
-0.39362934 0.5537209 -0.061464112 0.16077329 0.16620526 0.79890066 1.300221 0.68607354
0.040316153 -0.056205176 -0.50171965 -0.18599074 -0.5191624 -1.298986 -0.4138662 -1.2930993
-0.6012664 0.14833203 0.21189459 0.12808815 -0.0009902472 -0.001844603 0.10922767 0.061072636
0.023203012 -0.06346568 -0.12993789 -0.039803714 -0.120492764 -0.5438547 -0.19905756 0.08869879
-0.2176428 -0.014006037 0.20522003 -0.6608026 -1.0505784 -0.87867504 -0.003094759 -0.55231327
0.015360903 0.25360274 -0.9975293 0.31212726 0.9596972 0.91389316 0.9449748 -0.014474539
0.6232107 -0.099708356 -0.07505073 -0.038796913 0.35290855 -0.11964105 -0.19291808 0.1995813
0.20857039 -0.07846474 -0.076765 -0.2715143 -0.011050004 0.20944244 -0.033900097 -0.02878145
-0.07700873 0.007161542 0.00045306835 0.08198855 0.08866829 -0.0029600929 -0.010835354 0.22588924
0.01103274 -0.3005068 -0.18858008 -0.117405295 0.18979093 0.26974225 0.082334414 -0.02092179
-0.21637617 0.016377848 -0.07610515 -0.07524054 -0.07592686 -0.13756588 0.029572224 0.0721534
0.01942276 -0.016159432 -0.280686 0.414848 -0.033684082 -0.22570962 0.10461927 -0.26621917
0.11085573 0.03134664 0.05036294 0.06495856 -0.03674141 0.11719751 -0.023315663 0.112224005
-0.12870568 0.04566118 0.10532096 -0.32225573 -0.10247219 -0.0072116517 0.26522684 -0.30749324
0.4108333 -0.02723543 0.07277931 -0.113869116 0.4471521 -0.75330925 0.6607029 0.083377175
-0.31171986 -0.19033927 0.029572893 -0.09831339 0.3507135 0.4092741 -0.31309298 0.060419966
-0.06362255 0.18461241 0.16638955 0.36066112 -0.28492054 -0.38044268 -0.25801733 -0.004044132
-0.3731017 -0.1932766 -0.1259362 0.036293045 0.25032914 -0.15892237 -0.02387197 0.00686645
-0.57590294 -0.21200223 0.45472196 -0.3161026 -0.5385622 0.16343953 0.18588535 0.1933112
0.20172454 -0.14845465 -1.0265827 -0.08816923 0.1329591 0.13024764 -0.5435312 -0.33780706
-0.08877652 -0.15102215 0.030402662 0.0056188647 -0.041678596 0.13042822 -0.019064499 -0.17773543
-0.035236776 -0.05225385 0.07322868 -0.10497964 0.24000657 -0.21164018 0.30410224 0.33131158
0.261822 0.105474986 -0.021299658 -0.10921804 -0.33092752 -0.5876917 0.8616795 -0.6257501
0.565163 -0.21704286 0.015165859 0.024291275 -0.07169433 -0.10160679 0.6727902 -0.13376883
00000000: 9fcd 25bd fb1d e7bd 0dbc 263e f774 653a
00000010: ab11 e3bd 720f c73b 0a30 a33d c988 23bd
00000020: b322 f2bd 5c7e 883d f0a1 96bd b9e1 87bb
00000030: b444 d0bd ce82 9d3b 61db 5e3d a7ac af3e
00000040: 9d5c 2a3e ddf4 db3d 4cdd 7fbd 2fe4 2ebe
00000050: cb6f 523d 4202 e8bd 4d93 20be bf79 e33c
00000060: 2840 a8bd 408d 15be 037e 4c3d 3ee9 263e
00000070: b029 a23d 28fd 69bd e7fb a4bd bd81 143d
00000080: ae86 983d 1f51 023e 5467 50bc a2aa 793e
00000090: 9fec 9bbe 8b9f 283e 59ac e23e 2d15 5b3e
000000a0: b425 35be e63a e13d 27d1 3a3e 1131 813e
000000b0: 2617 353e 6428 3f3d a66e a83d cdad c5be
000000c0: 3e2a 4b3d ff65 f1be ee73 bb3e c4c6 ec3e
000000d0: ac55 69be d636 483e 8e05 9fbd 040a 9e3e
000000e0: c1a8 563f 8f10 b23e cf81 403e 2f8f a93e
000000f0: 34e9 413e 5fa3 54be 6aa4 673e 5c9b 7bbf
00000100: c989 c9be a7c0 0d3f cbc1 7bbd c1a1 243e
00000110: b631 2a3e c184 4c3f a46d a63f 84a2 2f3f
00000120: 8d22 253d 6637 66bd b370 00bf 5b74 3ebe
00000130: d4e7 04bf 2c45 a6bf 45e6 d3be 4784 a5bf
00000140: 98ec 19bf 5ae4 173e e5fa 583e 8a29 033e
00000150: 2fcb 81ba 9bc6 f1ba c2b2 df3d 4d27 7a3d
00000160: 3e14 be3c 4bfa 81bd 700e 05be 3809 23bd
00000170: e9c4 f6bd 103a 0bbf bfd5 4bbe b6a7 b53d
00000180: c1dd 5ebe 9479 65bc 3325 523e 5c2a 29bf
00000190: 5a79 86bf d9f0 60bf 71d1 4abb 6764 0dbf
000001a0: 4cac 7b3c 38d8 813e 155e 7fbf 25cf 9f3e
000001b0: b7ae 753f e7f4 693f dee9 713f 9e26 6dbc
000001c0: bd8a 1f3f e533 ccbd 32b4 99bd 83e9 1ebd
000001d0: 6eb0 b43e 5e06 f5bd 518c 45be 0a5f 4c3e
000001e0: 7a93 553e 1fb2 a0bd f836 9dbd ec03 8bbe
000001f0: 130b 35bc 1478 563e d4da 0abd 13c7 ebbc
00000200: c1b6 9dbd 5eab ea3b ce89 ed39 9de9 a73d
00000210: b897 b53d 1efe 41bb c586 31bc 824f 673e
00000220: aac2 343c 07dc 99be 231b 41be 3072 f0bd
00000230: 8e58 423e a81b 8a3e f29e a83d 2c64 abbc
00000240: b791 5dbe d62a 863c 04dd 9bbd b617 9abd
00000250: 8b7f 9bbd 12de 0cbe 7341 f23c 29c5 933d
00000260: 7b1c 9f3c c960 84bc 13b6 8fbe f566 d43e
00000270: 52f8 09bd 6c20 67be a142 d63d e14d 88be
00000280: 5408 e33d 5665 003d 5f49 4e3d fe08 853d
00000290: 297e 16bd 4005 f03d 7d00 bfbc b3d5 e53d
000002a0: 6ccb 03be 3807 3b3d 84b2 d73d b4fe a4be
000002b0: f1dc d1bd b84f ecbb d0cb 873e c16f 9dbe
000002c0: be58 d23e d61c dfbc 520d 953d 3634 e9bd
000002d0: 1ff1 e43e e0d8 40bf d323 293f a7c1 aa3d
000002e0: bf99 9fbe 4ce8 42be da42 f23c 8858 c9bd
000002f0: b890 b33e 608c d13e b94d a0be ed7a 773d
00000300: 8a4c 82bd 090b 3d3e 0662 2a3e 93a8 b83e
00000310: 1be1 91be 62c9 c2be d91a 84be a384 84bb
00000320: 3007 bfbe 4dea 45be 6bf5 00be 04a8 143d
00000330: 242b 803e 8cbc 22be 268f c3bc f5ff e03b
00000340: 606e 13bf 1d17 59be 51d1 e83e 33d8 a1be
00000350: 36df 09bf b15c 273e bb58 3e3e 5ff3 453e
00000360: e190 4e3e 7f04 18be 1067 83bf 1292 b4bd
00000370: 6e26 083e a35f 053e dc24 0bbf 0cf5 acbe
00000380: 77d0 b5bd 8da5 1abe 010f f93c 741e b83b
00000390: 2db7 2abd fa8e 053e 272d 9cbc 4700 36be
000003a0: 7054 10bd 2208 56bd ebf8 953d 91ff d6bd
000003b0: 48c4 753e 34b8 58be 4ab3 9b3e aca1 a93e
000003c0: 880d 863e 4503 d83d 9f7c aebc b5ad dfbd
000003d0: 556f a9be f772 16bf 0797 5c3f 2931 20bf
000003e0: 86ae 103f 7c40 5ebe 397a 783c 7ffe c63c
000003f0: 7ad4 92bd 3917 d0bd fb3b 2c3f b2fa 08be

pre_layer.5.bias f4 [32]
-9.338051 -7.447876 -7.403973 -4.9260926 -5.1283326 -5.9136653 -6.911248 -6.708315
-5.904416 -7.611579 -6.702922 -5.069934 -8.693146 -5.9650292 -25.930899 -7.8790674
-7.1558867 -6.377215 -6.4018283 -7.750283 -6.371232 -6.04384 -57.220173 -6.459434
-5.4865646 -8.661841 -7.059518 -6.267888 -8.559145 -7.2276435 -7.565102 -5.6264462
00000000: a868 15c1 0055 eec0 59ed ecc0 8da2 9dc0
00000010: 4d1b a4c0 bf3c bdc0 f228 ddc0 84aa d6c0
00000020: faf0 bcc0 0e92 f3c0 567e d6c0 e63c a2c0
00000030: 2017 0bc1 85e1 bec0 7b72 cfc1 5221 fcc0
00000040: 06fd e4c0 2512 ccc0 c7db ccc0 5102 f8c0
00000050: 22e1 cbc0 2367 c1c0 75e1 64c2 afb3 cec0
00000060: f091 afc0 e796 0ac1 92e7 e1c0 8a92 c8c0
00000070: 42f2 08c1 db48 e7c0 5115 f2c0 d90b b4c0

conv4_1.weight f4 [1, 32, 1, 1]
0.029335018 0.06413824 -0.054556884 -0.014305553 -0.054506972 0.004232268 -0.016262455 -0.07461431
-0.042924 -0.06235175 0.012575698 -0.07828258 0.008280717 0.07864511 -0.5948557 0.027238525
0.0044783396 0.008553291 0.008227611 0.009892035 0.08937443 0.11272544 0.60850656 0.014193414
0.0050754314 0.0007548438 -0.05010871 -0.030091338 0.038481634 -0.0025833333 0.045720097 0.051483795
00000000: fe4f f03c e95a 833d 0a77 5fbd d761 6abc
00000010: b442 5fbd d6ae 8a3b d738 85bc 63cf 98bd
00000020: 14d1 2fbd 8c64 7fbd 4d0a 4e3c 9e52 a0bd
00000030: d8ab 073c b010 a13d 7748 18bf 5423 df3c
00000040: 09bf 923b 1a23 0c3c 1acd 063c 3412 223c
00000050: f109 b73d 98dc e63d 16c7 1b3f 7e8b 683c
00000060: ce4f a63b b6e0 453a ca3e 4dbd 1c82 f6bc
00000070: eb9e 1d3d 244d 29bb ff44 3b3d ace0 523d

conv4_2.weight f4 [4, 32, 1, 1]
0.13019893 0.0030387589 0.0009961688 0.0006117813 -0.00012993158 0.0040050815 -0.07389866 0.001690738
0.0005450075 0.006539773 0.0033428022 0.0006207475 -0.00078182545 -0.00018408199 -0.002695305 0.021964297
-0.001792908 0.0020638471 0.0972793 0.0119293155 0.0024270636 0.0048018554 -0.0008335738 0.022492863
0.0069087944 -0.00076887495 0.0039358693 -0.0026283304 0.00853859 -0.16641726 -0.0057759956 -0.0011539742
-0.13301826 -0.01332119 -0.0012384581 -0.0012489166 -0.0016684557 0.010877765 -0.13065295 -0.0047362684
6.469684e-05 0.0044521736 -1.3341967e-05 0.005281834 0.007630551 0.0006011622 -0.0017257674 -0.0005211015
-0.007800916 0.0551603 0.16257152 -0.013778914 0.0046883435 0.0033045164 1.1124808e-05 -0.0070993938
0.011975521 0.0010473048 0.0028971795 -0.009155877 -0.050326012 -0.013717073 0.007390468 -0.009098836
0.11425075 0.0029642521 0.003564232 0.000107303116 0.00013141328 0.00043244025 -0.14691989 0.0019896273
0.0039124824 0.0010753868 0.0014383497 -0.00086282037 -0.010648759 -0.0025202595 -0.00151526 0.01524048
0.0044461084 0.011526836 -0.06325816 0.0049086236 0.002069357 -0.0017871631 -0.0010176878 -0.0058346954
-0.017973065 -0.008206699 -0.004077141 -0.00838087 0.12816706 -0.037142128 -0.0074121077 0.0013668076
0.0026204765 -0.01344705 0.006864131 -0.009851677 -0.0032907256 -0.0014045731 -0.19369966 0.0050006364
-0.00054706266 -0.011923395 -0.017244011 0.0009647807 -0.0016209505 -0.00091290154 0.0011274118 0.009092246
0.0016117718 0.1258913 -0.07209522 0.016273249 0.0008303096 -0.004137368 -0.00095609104 -0.0028355264
-0.008774638 -0.0014229212 0.001944897 -0.0005050768 -0.030793823 0.09813804 0.0030330531 0.005414828
00000000: de52 053e ea25 473b e191 823a f35f 203a
00000010: 3e3e 08b9 0f3d 833b 2e58 97bd c19b dd3a
00000020: d6de 0e3a 984b d63b ea12 5b3b a9b9 223a
00000030: 6bf3 4cba 2206 41b9 b7a3 30bb 78ee b33c
00000040: 0200 ebba 9c41 073b 5f3a c73d 2d73 433c
00000050: 5f0f 1f3b e258 9d3b 3184 5aba f442 b83c
00000060: 2b63 e23b 538e 49ba 77f8 803b 1140 2cbb
00000070: 71e5 0b3c 4969 2abe 9044 bdbb f340 97ba
00000080: f035 08be 1f41 5abc c253 a2ba b0b2 a3ba
00000090: 15b0 daba a738 323c e3c9 05be b332 9bbb
000000a0: daad 8738 8ae3 913b 50d7 5fb7 3c13 ad3b
000000b0: b309 fa3b 5097 1d3a 2533 e2ba 889a 08ba
000000c0: d49e ffbb c4ef 613d 2679 263e f4c0 61bc
000000d0: ada0 993b 9690 583b b0a4 3a37 08a2 e8bb
000000e0: fa34 443c b845 893a 9bde 3d3b 8802 16bc
000000f0: a622 4ebd 93bd 60bc bd2b f23b 4913 15bc
00000100: 4cfc e93d e643 423b e495 693b ec07 e138
00000110: fccb 0939 26b9 e239 2b72 16be 6864 023b
00000120: 4834 803b fef3 8c3a 0287 bc3a e52e 62ba
00000130: 2278 2ebc f02a 25bb b09b c6ba 35b3 793c
00000140: a9b0 913b 0edb 3c3c 7f8d 81bd 85d8 a03b
00000150: 0d9e 073b 3e3f eaba f063 85ba f930 bfbb
00000160: 403c 93bc 6475 06bc 8a99 85bb eb4f 09bc
00000170: 3a3e 033e 5822 18bd 44e1 f2bb 7426 b33a
00000180: 4dbc 2b3b 0451 5cbc 81ec e03b ee68 21bc
00000190: 37a9 57bb a719 b8ba 3459 46be 61dc a33b
000001a0: c168 0fba 585a 43bc 5043 8dbc 56e9 7c3a
000001b0: 1376 d4ba c94f 6fba aac5 933a a5f7 143c
000001c0: 1642 d33a a6e9 003e a9a6 93bd 7a4f 853c
000001d0: 22a9 593a c292 87bb 2fa2 7aba 3dd4 39bb
000001e0: 80c3 0fbc 5081 baba eaeb fe3a 2167 04ba
000001f0: 5443 fcbc 99fc c83d 30c6 463b df6e b13b

conv4_2.bias f4 [4]
0.011942705 -0.12631512 -0.08603971 0.033234358
00000000: 56ab 433c c058 01be 9635 b0bd c020 083d

conv4_3.weight f4 [10, 32, 1, 1]
-0.33327818 0.09552908 -0.3758626 -0.33064356 -0.17563571 -0.14604317 -0.21483992 0.33983204
-0.22184952 0.27885702 0.15580568 0.31917414 0.05119568 0.3035021 0.3382199 0.15665427
-0.21246232 -0.14358161 -0.13092119 0.03504321 0.08507806 -0.022973686 0.29670957 -0.31418827
0.13458851 -0.2939119 0.33406135 -0.32361826 0.11998385 -0.086789906 0.14443186 -0.28594625
0.22189441 -0.04920104 -0.26852757 0.052119315 0.13249972 0.09812266 0.2561703 0.11424604
-0.30217043 0.3377222 -0.31661558 0.33993593 0.06054157 -0.13836561 -0.11077967 -0.26835898
0.33472165 0.06537181 0.049223542 -0.26246405 -0.03298816 -0.3677584 -0.28892556 0.34458485
0.2659324 0.32074 -0.2830755 -0.05347094 -0.30408296 -0.07539794 0.095291555 -0.116604954
0.082246006 -0.1167725 -0.3714639 -0.2883544 -0.27424246 0.09678367 -0.3769358 0.21431652
0.29937205 0.28850022 -0.14860627 -0.34037966 -0.006524235 0.24132904 0.25142547 0.20265886
0.20862588 0.194549 -0.21259528 0.35774782 0.19937608 -0.34311542 -0.26495615 0.20617679
0.20461586 -0.18765454 0.33286873 0.0777373 0.35496137 0.26260766 -0.026865393 -0.10478476
-0.34933636 -0.3167273 -0.09246075 -0.3627126 -0.17095579 0.27128384 -0.22817747 0.2992321
0.28510866 -0.12440583 0.12792471 0.12342295 0.3778527 0.32979533 0.012286454 0.37399533
0.3133752 0.29508933 0.25954077 -0.121308595 -0.1885208 0.17828521 -0.29976037 -0.042917043
-0.07327235 -0.3165178 0.052886665 0.014822036 0.22029194 -0.03468564 0.17202201 0.09826782
-0.10825148 0.13523784 -0.20202242 0.16204306 0.2816824 0.16439041 0.34489855 0.23353943
0.2617748 -0.2334913 -0.078278035 -0.24628156 -0.35671383 -0.089805305 0.27671698 -0.13581157
0.03881848 -0.33082303 -0.30562475 -0.15699722 -0.08178675 -0.18830562 0.17125598 0.33928028
-0.34779608 -0.3233718 0.009803534 -0.062132895 0.24687871 -0.096621215 0.050554484 -0.12325114
0.15252283 0.2555386 -0.1330631 0.16245726 -0.060032874 0.09130889 0.3256348 -0.040962428
0.08647522 0.20857355 -0.16327693 -0.25773582 0.1265386 0.021875292 -0.074987024 -0.06926012
0.29239097 -0.1006386 0.30908528 0.0043057203 0.37241563 -0.29696828 -0.23432256 0.093885094
0.08960447 0.2684224 0.014273167 0.104310125 -0.027317435 -0.35791 -0.08962786 0.038680285
0.022360206 -0.22539653 0.061222464 0.32240358 -0.083485514 -0.037591368 -0.08997789 0.033181995
-0.16095519 0.35473695 -0.02323407 0.3205168 0.03392291 -0.29403293 -0.13211378 0.07710832
0.12672654 -0.16409706 -0.27844763 0.052306443 -0.112568915 -0.33653626 -0.08047396 0.36985764
-0.35989836 0.34425023 0.0045796335 -0.2427732 0.13085529 -0.30226284 -0.10287058 0.03382486
-0.23932068 -0.25124565 0.12690416 -0.37758428 0.3752965 -0.13869007 0.17073604 -0.2449313
0.03927356 -0.07728362 0.27176037 -0.05689004 0.3713592 0.05231431 -0.3393709 -0.048623204
-0.14692637 0.07299453 0.2711722 -0.15115564 0.30610076 -0.05506134 -0.05027157 -0.34172085
-0.25895083 -0.19697572 0.3583735 -0.10725838 0.08124539 0.20049432 -0.18067199 -0.21107006
00000000: 70a3 aabe c0a4 c33d 1071 c0be 1d4a a9be
00000010: d9d9 33be 578c 15be fffe 5bbe 77fe ad3e
00000020: 852c 63be 59c6 8e3e 868b 1f3e cb6a a33e
00000030: 90b2 513d a164 9b3e 292b ad3e fa69 203e
00000040: b98f 59be 0f07 13be 3410 06be 7889 0f3d
00000050: 683d ae3d 5033 bcbc 51ea 973e 49dd a0be
00000060: 92d1 093e 9f7b 96be 170a ab3e 4bb1 a5be
00000070: 18ba f53d e8be b1bd f2e5 133e 8c67 92be
00000080: 4a38 633e 0887 49bd 727c 89be 107b 553d
00000090: 02ae 073e 88f4 c83d c128 833e d4f9 e93d
000000a0: 15b6 9abe ede9 ac3e 701b a2be 150c ae3e
000000b0: 70fa 773d b7af 0dbe 74e0 e2bd 5966 89be
000000c0: a360 ab3e a8e1 853d a09e 493d b061 86be
000000d0: 981e 07bd d44a bcbe 0dee 93be 6d6d b03e
000000e0: 4b28 883e 0938 a43e 46ef 90be 5804 5bbd
000000f0: c3b0 9bbe 3c6a 9abd 3828 c33d 94ce eebd
00000100: 9870 a83d 6c26 efbd 8430 bebe 30a3 93be
00000110: 8269 8cbe 8436 c63d bbfd c0be ca75 5b3e
00000120: 4b47 993e 4db6 933e 3e2c 18be 3e46 aebe
00000130: 40c9 d5bb f61e 773e d7ba 803e ce85 4f3e
00000140: 06a2 553e da37 473e 94b2 59be b92a b73e
00000150: 3e29 4c3e d3ac afbe 55a8 87be 0220 533e
00000160: d286 513e 8328 40be c56d aa3e bc34 9f3d
00000170: 7fbd b53e 8374 863e d014 dcbc 6499 d6bd
00000180: 37dc b2be 152a a2be 105c bdbd 77b5 b9be
00000190: 090f 2fbe b7e5 8a3e 5ba7 69be f334 993e
000001a0: c3f9 913e 7cc8 febd b2fe 023e 2cc5 fc3d
000001b0: e975 c13e efda a83e 204d 493c 517c bf3e
000001c0: b772 a03e f315 973e 87e2 843e a470 f8bd
000001d0: 990b 41be 6690 363e 317a 99be c8c9 2fbd
000001e0: d00f 96bd 9f0e a2be b09f 583d 20d8 723c
000001f0: 3694 613e 8812 0ebd 8a26 303e a440 c93d
00000200: f4b2 ddbd ca7b 0a3e f7de 4ebe 9eee 253e
00000210: ad38 903e f655 283e 8b96 b03e f624 6f3e
00000220: 5907 863e 5818 6fbe 3c50 a0bd 3c31 7cbe
00000230: 32a3 b6be d8eb b7bd d9ad 8d3e 3012 0bbe
00000240: 2000 1f3d a361 a9be d97a 9cbe e1c3 20be
00000250: d07f a7bd 30d3 40be ba5d 2f3e 25b6 ad3e
00000260: 5412 b2be fd90 a5be 009f 203c 107f 7ebd
00000270: c6cd 7c3e 58e1 c5bd 3812 4f3d 186b fcbd
00000280: f22e 1c3e f5d5 823e b141 08be 325b 263e
00000290: 08e5 75bd 2800 bb3d 9bb9 a63e 38c8 27bd
000002a0: ec19 b13d 4e94 553e 1132 27be f3f5 83be
000002b0: 5693 013e d033 b33c cc92 99bd 40d8 8dbd
000002c0: 45b4 953e 9c1b cebd 6d40 9e3e 0017 8d3b
000002d0: 43ad be3e 3a0c 98be 41f2 6fbe d446 c03d
000002e0: 8c82 b73d a96e 893e 00da 693c 8ca0 d53d
000002f0: d0c8 dfbc fb3f b7be d08e b7bd 386f 1e3d
00000300: c02c b73c 59ce 66be 68c4 7a3d 1512 a53e
00000310: 74fa aabd 68f9 19bd 5446 b8bd d8e9 073d
00000320: 70d1 24be 15a0 b53e 6055 bebc c71a a43e
00000330: c0f2 0a3d 7c8b 96be d648 07be f8ea 9d3d
00000340: 9ac4 013e 0f09 28be b090 8ebe 483f 563d
00000350: 888a e6bd 7b4e acbe 88cf a4bd fb5d bd3e
00000360: 9944 b8be 9141 b03e c010 963b 8a99 78be
00000370: eefe 053e 32c2 9abe d0ad d2bd f08b 0a3d
00000380: 7b10 75be 45a3 80be 2af3 013e ba52 c1be
00000390: dd26 c03e c504 0ebe 6ed5 2e3e 45cf 7abe
000003a0: 50dd 203d e046 9ebd 2d24 8b3e 8805 69bd
000003b0: cb22 be3e 8847 563d 06c2 adbe 2029 47bd
000003c0: de73 16be 287e 953d 15d7 8a3e 8bc8 1abe
000003d0: 3db9 9c3e 0088 61bd 90e9 4dbd 09f6 aebe
000003e0: 3495 84be 01b4 49be bb7c b73e 48aa dbbd
000003f0: fc63 a63d 624e 4d3e 1402 39be c022 58be

conv4_3.bias f4 [10]
0.1 0.1 0.1 0.1 0.1 0.1 0.1 0.1
0.1 0.1
00000000: cdcc cc3d cdcc cc3d cdcc cc3d cdcc cc3d
00000010: cdcc cc3d cdcc cc3d cdcc cc3d cdcc cc3d
00000020: cdcc cc3d cdcc cc3d
