model/rnet_model.pt (torch, 246498 bytes, 13 tensors)

pre_layer.0.weight f4 [28, 3, 3, 3]
0	0xbf21b8b1	-0.6317244
1	0x3d6f4240	0.05841279
2	0xbe766045	-0.24060161
3	0xbe9fecaf	-0.31235263
4	0x3eee675f	0.4656324
5	0xbe29f763	-0.16598277
6	0xbe9c1cc7	-0.30490705
7	0x3ee96e60	0.45592022
8	0xbe1ec666	-0.1550537
9	0x3d2d8682	0.042364605
10	0x3f40af9b	0.7526795
11	0x3f29f104	0.66383386
12	0x3e91f9ee	0.28510994
13	0x3f33db5a	0.7025658
14	0x3ef7ac10	0.4837346
15	0x3e538d15	0.20659287
16	0x3f5910db	0.84791344
17	0x3e63b29d	0.22236104
18	0xbfa2744b	-1.269174
19	0xbdfd1105	-0.12356762
20	0x3e3a9d61	0.18224098
21	0xbf810d2e	-1.0082147
22	0x3d611323	0.05494989
23	0xbd28431b	-0.04107962
24	0xbf44fd99	-0.7694946
25	0x3da59816	0.08085649
26	0x3d428182	0.04748679
27	0x3e825d87	0.2546198
28	0xbef016d6	-0.46892422
29	0xbf81b955	-1.0134684
30	0x3f693edf	0.9111156
31	0x3f3305b2	0.69930565
32	0xbe06de8f	-0.13170837
33	0xbe4d574d	-0.20052834
34	0x3ea84489	0.32864788
35	0x3e4e41b0	0.20142245
36	0x3dcebaed	0.10094247
37	0xbebc8444	-0.3681966
38	0xbf15410a	-0.58302367
39	0x3f04f38a	0.5193411
40	0x3e925780	0.28582382
41	0xbe121da4	-0.1426912
42	0xbf467203	-0.7751772
43	0xbea4aa5b	-0.3216122
44	0xbe4ed534	-0.20198518
45	0x3c5a13d1	0.013310389
46	0x3c04109a	0.008060599
47	0x3e9d0c50	0.30673456
48	0x3e297974	0.16550237
49	0x3ea399d4	0.319533
50	0x3e4294f1	0.19002129
51	0xbf82c91d	-1.0217625
52	0xbf00dd40	-0.503376
53	0x3d83e466	0.06440048
54	0xbda91488	-0.08255869
55	0xbcc36a8c	-0.023854516
56	0xbe3fe070	-0.1873796
57	0xbd56702c	-0.05235307
58	0xbe664297	-0.2248634
59	0x3dff6227	0.12469893
60	0xbe315070	-0.1731584
61	0x3dde4079	0.10852141
62	0xbdb34b68	-0.08754617
63	0xbc55680f	-0.013025298
64	0x3e32aab5	0.17447932
65	0xbd63e114	-0.055634573
66	0x3e0c4262	0.13697198
67	0x3cb39b41	0.021924617
68	0x3e3c817a	0.18408766
69	0x3cefc048	0.029266492
70	0x3c93a2e2	0.018022005
71	0xbdadb770	-0.084822536
72	0x3db5c966	0.08876304
73	0x3d89388a	0.06700237
74	0xbe1d44b1	-0.15358235
75	0xbdc883d6	-0.09790771
76	0xbde71373	-0.112830065
77	0xbe09c48a	-0.1345388
78	0x3d865984	0.065600425
79	0x3c12f0da	0.008968556
80	0xbd098a8a	-0.033579387
81	0x3ee28dd6	0.44248837
82	0x3ed9f56f	0.42570063
83	0x3e8e7b39	0.27828386
84	0x3f100757	0.562612
85	0x3ecafbb3	0.39645156
86	0x3de9bd7e	0.11413096
87	0x3ed9a857	0.42511246
88	0x3eef4bb3	0.4673744
89	0x3e5160d2	0.2044709
90	0x3ee59520	0.44840336
91	0x3ee22520	0.4416895
92	0x3e81e3b2	0.2536903
93	0x3efad007	0.48986837
94	0x3eadbcb9	0.33933046
95	0x3e84cbad	0.25936642
96	0x3e947716	0.28997105
97	0x3e8dfbde	0.27731222
98	0x3c32029a	0.010864878
99	0xbec344e5	-0.381385
100	0xbeda8d3f	-0.42685887
101	0xbf1b24c6	-0.60602987
102	0xbec18b9d	-0.3780183
103	0xbf3cf546	-0.7381176
104	0xbf3e0997	-0.7423338
105	0xbf0c24ca	-0.54743636
106	0xbf1b6adb	-0.60709924
107	0xbf313d6b	-0.6923434
108	0x3ea4640a	0.32107574
109	0x3e282671	0.16420914
110	0xbdb77fdb	-0.08959933
111	0x3e5e15c7	0.21687995
112	0xbe6274e1	-0.22114898
113	0xbe811bf3	-0.25216636
114	0x3c4007de	0.011720626
115	0xbdaab1e7	-0.083347134
116	0xbeadf243	-0.33973894
117	0x3e529e60	0.20568228
118	0x3d99af1e	0.07504104
119	0x3e301ea2	0.17199185
120	0x3e155b14	0.14585525
121	0xbd273f7c	-0.040832028
122	0xbdbe157a	-0.0928144
123	0xbc8be61b	-0.017077496
124	0x3e833e5e	0.2563352
125	0xbe06f64e	-0.13179895
126	0xbf0e87d7	-0.55676025
127	0xbebaa967	-0.3645737
128	0x3e2693fa	0.16267386
129	0xbe95db14	-0.29268706
130	0xbc8b46f1	-0.017001601
131	0x3d33e1e4	0.043916598
132	0xbe56605b	-0.20935194
133	0x3dcc8f0c	0.099882215
134	0x3eb0ca4d	0.34529343
135	0x3ecf8648	0.40532136
136	0x3e547084	0.20746046
137	0xbf207d44	-0.6269114
138	0x3ee115ac	0.43961847
139	0x3c100048	0.00878913
140	0xbf095946	-0.53651845
141	0x3f310a22	0.69156086
142	0xbb6b8880	-0.0035939515
143	0xbe10ccc1	-0.14140607
144	0x3f1a1b06	0.60197484
145	0x3e84d636	0.2594468
146	0xbf5893da	-0.84600604
147	0x3f2fa41f	0.68609804
148	0xbdb7828c	-0.08960447
149	0xbf723478	-0.9461131
150	0x3f065720	0.5247669
151	0xbe370cf8	-0.17876041
152	0xbf1da57d	-0.6158064
153	0x3f309b4a	0.6898695
154	0x3f010ace	0.5040711
155	0xbf2ba3ee	-0.6704701
156	0x3f2a11aa	0.66433203
157	0x3e0bc850	0.13650632
158	0xbf6452a7	-0.8918862
159	0x3f2a707c	0.6657789
160	0x3c01058e	0.0078748595
161	0xbf5323b8	-0.8247638
162	0x3edc8aa2	0.43074518
163	0xbf6c240c	-0.92242503
164	0x3d081b40	0.033229113
165	0xbf0d0c32	-0.55096734
166	0xbf179df7	-0.5922541
167	0x3f26c4ad	0.65143853
168	0xbd1ce148	-0.038300782
169	0x3e9f2949	0.31086186
170	0x3f0c0261	0.5469113
171	0x3ea95973	0.33076057
172	0xbf4a4f3a	-0.7902714
173	0xbd9bab0e	-0.076009855
174	0xbf1617c3	-0.5863001
175	0xbf24218e	-0.641137
176	0x3f12394c	0.5711868
177	0xbcf8814d	-0.030335093
178	0x3eb6995b	0.35663876
179	0x3f07c7aa	0.5303904
180	0xbe216621	-0.15761615
181	0xbf32f22f	-0.6990079
182	0x3ea9e1fe	0.3318023
183	0xbf57047f	-0.83991235
184	0xbee92d30	-0.45542288
185	0x3f3a9631	0.72885424
186	0x3d9ec46f	0.077523105
187	0x3f08af4b	0.53392476
188	0x3f2ba3b7	0.67046684
189	0xbdbe7cb6	-0.093011305
190	0xbe0f32ed	-0.1398427
191	0xbeb6cfe0	-0.3570547
192	0x3dcfbde0	0.10143638
193	0x3d2d3906	0.04229071
194	0xbd94f741	-0.072737224
195	0x3cb8cf6b	0.022559842
196	0x3ed3c2d0	0.41359568
197	0xbe05d5ee	-0.13069889
198	0xbc437a04	-0.011930946
199	0x3c0d916a	0.008640626
200	0x3dd48995	0.10377804
201	0x3da56753	0.08076348
202	0x3e33e4a6	0.17567691
203	0x3d7e8732	0.06214065
204	0xbe2ff99d	-0.17185064
205	0x3ed17324	0.40908158
206	0xbcfbd8ef	-0.03074309
207	0xbc1b6caa	-0.009486357
208	0x3d1ece40	0.038770914
209	0x3de4bdba	0.11169
210	0x3d0f3b68	0.034968764
211	0xbe941dab	-0.28928885
212	0x3d4d19dd	0.050073493
213	0xbf139cdb	-0.5766122
214	0xbe834a40	-0.25642586
215	0xbedcd61b	-0.431321
216	0x3e326a02	0.17423251
217	0x3ec8572e	0.39129013
218	0x3cdd460f	0.027010946
219	0xbeb96a47	-0.36213896
220	0x3ed7ca06	0.4214632
221	0xbe8c18d9	-0.27362707
222	0xbea7395a	-0.32660943
223	0x3e5627a1	0.20913555
224	0xbe772892	-0.2413657
225	0xbe88f191	-0.267468
226	0xbd6cb145	-0.057786245
227	0xbd0fbbde	-0.035091273
228	0xbf3499ba	-0.7054707
229	0x3d76ea89	0.060282264
230	0xbe9ac405	-0.30227676
231	0xbe9fe612	-0.31230217
232	0x3dfebc21	0.124382265
233	0xbdc65b63	-0.096853994
234	0xbdb77875	-0.08958522
235	0xbcdeeb1d	-0.02721172
236	0xbe0b0d1c	-0.1357922
237	0x3c593ba8	0.013258852
238	0x3e47563d	0.19466491
239	0xbdc7f646	-0.0976377
240	0x3d4ecf40	0.050490618
241	0x3e66efa6	0.22552356
242	0xbc5824f3	-0.013192403
243	0xbea5c1f9	-0.32374552
244	0xbdcc111d	-0.099642016
245	0xbf11c0a3	-0.56934565
246	0xbecc50aa	-0.39905292
247	0x3da786cb	0.081800066
248	0xbe7d67d6	-0.24746642
249	0xbe4b8281	-0.19874002
250	0xbd16cf6e	-0.036818914
251	0xbe8c0a2e	-0.27351516
252	0x3f33cbf4	0.7023308
253	0x3f2adc60	0.66742516
254	0x3e976a9b	0.2957352
255	0x3ed5bb41	0.41744426

pre_layer.0.bias f4 [28]
0	0x3e3b6dce	0.18303606
1	0x3e620c4c	0.22075003
2	0x3b9eb2f4	0.00484311
3	0x3decd8a6	0.1156476
4	0xbbc97e52	-0.0061490918
5	0x3cca49f5	0.024693469
6	0xbd848318	-0.06470317
7	0x3e0b681f	0.13613938
8	0x3dc2cc8c	0.095116705
9	0x3e98c2f4	0.29836237
10	0xbdc6a1a2	-0.09698798
11	0x3ea3ada7	0.31968424
12	0xbbc48c31	-0.0059981574
13	0x3ce803c2	0.028322104
14	0x3edea84a	0.4348777
15	0x3e2eeff3	0.17083721
16	0xbd9c873c	-0.076429814
17	0x3e022209	0.12708296
18	0x3cf11afe	0.029431816
19	0x3a67ffa5	0.00088500447
20	0xbe8273ca	-0.25478965
21	0x3d88e648	0.06684548
22	0x3d9dea61	0.0771072
23	0xbe5f9b77	-0.21836649
24	0xbb9671c3	-0.004591198
25	0x3e83d365	0.2574722
26	0xbcf6d13f	-0.030129073
27	0xbe71cc94	-0.23613197

pre_layer.3.weight f4 [48, 28, 3, 3]
0	0xbda18597	-0.07886808
1	0xbdc78a5d	-0.097431876
2	0xbfd6fd17	-1.6795987
3	0x3d827e1e	0.06371711
4	0x3deb844b	0.11499842
5	0x3efb54be	0.4908809
6	0x3e0859c9	0.133155
7	0x3ede4120	0.4340906
8	0x3f221363	0.6331083
9	0x3dac5b8d	0.084158994
10	0xbe5907f6	-0.21194443
11	0x3dea9826	0.11454801
12	0xbd9ef739	-0.07761998
13	0xbe81dbd3	-0.25363025
14	0x3ec3c3b7	0.38235256
15	0xbd2af583	-0.041738044
16	0xbe25b58e	-0.16182539
17	0x3ceb7e27	0.028746678
18	0xbe0b0c32	-0.13578871
19	0xbdd6ab75	-0.104819216
20	0x3e98da43	0.2985402
21	0xbc69c7ca	-0.014268825
22	0x3ea6b547	0.3256018
23	0x3f20f5c3	0.62875
24	0x3ed74a2d	0.4204878
25	0x3f0ecdd0	0.55782795
26	0x3ea3324c	0.3187431
27	0x3dbc7e00	0.0920372
28	0xbe5e67b0	-0.21719241
29	0xbeb36144	-0.35035145
30	0x3dd95868	0.10612565
31	0xbc8d009a	-0.0172122
32	0xbf48e7f5	-0.7847894
33	0x3e90227b	0.28151307
34	0x3e9b780c	0.30365026
35	0x3f8e8e8d	1.1137253
36	0xbd55069e	-0.052008264
37	0xbe60605f	-0.21911763
38	0x3de137b0	0.1099695
39	0xbd9bed2b	-0.076135956
40	0x3ddbd2d6	0.10733573
41	0x3ebb054c	0.3652748
42	0x3e3d080b	0.184601
43	0x3e83022b	0.25587592
44	0x3e1ed193	0.15509634
45	0xbea42307	-0.32057974
46	0x3dfb4ad3	0.12270131
47	0x3f8eff9f	1.1171759
48	0x3f2fde4d	0.6869858
49	0x3ea7c041	0.32763866
50	0x3e104866	0.14090118
51	0x3f35df2a	0.71043646
52	0x3e236b1f	0.15958832
53	0xbf0352df	-0.51298326
54	0x3d4b74b8	0.04967186
55	0xbf19ce12	-0.60080063
56	0x3f3e7cd8	0.74409246
57	0xb9fa0f0d	-0.0004769493
58	0x3f25c99c	0.64760756
59	0x3f79c777	0.97569984
60	0x3f60cfa9	0.87816864
61	0x3f2a2e51	0.66476923
62	0x3f2fa38f	0.68608946
63	0xbf0b11b2	-0.54323876
64	0xbe5d662b	-0.21621005
65	0xbde7bac9	-0.11314923
66	0xbe4dcc92	-0.20097569
67	0xbe0b696f	-0.13614438
68	0xbcc6a510	-0.02424863
69	0x3e32ff7d	0.17480274
70	0x3e4d36ff	0.2004051
71	0x3ed5bec3	0.41747102
72	0xbd52fedb	-0.05151258
73	0xbec73db6	-0.3891427
74	0xbe08b2d1	-0.13349463
75	0xbe81edfe	-0.25376886
76	0xbe8c732e	-0.27431625
77	0x3e4b5250	0.19855618
78	0x3eb3ffcc	0.35156095
79	0x3d44c2be	0.048037283
80	0x3e8e79f5	0.2782742
81	0xbee0bfde	-0.43896383
82	0x3ed8d89a	0.42352754
83	0xbc7f657c	-0.015588161
84	0xbe7e9286	-0.24860582
85	0x3f1287d2	0.57238495
86	0xbda2de94	-0.0795261
87	0xbecea8d5	-0.40363184
88	0x3e677328	0.22602522
89	0xbdd41df2	-0.10357274
90	0xbf2fb69c	-0.68638015
91	0xbf2f736a	-0.6853548
92	0x3ec0c68c	0.3765148
93	0xbe17bc63	-0.14817958
94	0xbea41bc1	-0.32052425
95	0x3f20d4ff	0.62825006
96	0x3de5d339	0.11221928
97	0x3edf7a14	0.43647826
98	0x3f82581e	1.0183141
99	0xbe8d0cd9	-0.27548864
100	0xbf09f70f	-0.53892606
101	0xbe91c86a	-0.28473216
102	0x3d8c2e1e	0.06844734
103	0xbe72fabb	-0.23728459
104	0xbd4e56ba	-0.050375678
105	0x3ea6b269	0.3255799
106	0x3eb19ec7	0.3469145
107	0x3edb9b44	0.42891896
108	0x3f7a61ac	0.97805285
109	0x3eecfe0f	0.4628758
110	0xbfb46e34	-1.4096131
111	0xbf5de3d9	-0.8667579
112	0x3e986bea	0.29769832
113	0x3f00eea1	0.5036412
114	0xbe6de293	-0.23230962
115	0x3f58b026	0.8464378
116	0x3f0b733e	0.5447272
117	0xbe531746	-0.20614347
118	0xbf87a609	-1.0597545
119	0xbf044d7f	-0.5168075
120	0xbf9ecf60	-1.2407036
121	0x3e3962eb	0.1810414
122	0x3dbcc174	0.09216586
123	0xbf3af319	-0.7302719
124	0xbdd1c992	-0.102435246
125	0xbf4430cc	-0.7663696
126	0xbe3f7c3a	-0.18699732
127	0xbf2ebe22	-0.6825887
128	0xbde1a8aa	-0.11018498
129	0xbda71c66	-0.081597134
130	0xbef70cde	-0.48252004
131	0xbe1528b0	-0.14566302
132	0x3f30c9fe	0.69058216
133	0x3dbb63dd	0.09149907
134	0x3e11ff1b	0.14257471
135	0xbebd3ae8	-0.36959004
136	0xbe95c8da	-0.292548
137	0xbe34873f	-0.17629717
138	0xbe0f0dfa	-0.13970175
139	0xbcebf28c	-0.028802179
140	0x3d8a220d	0.06744776
141	0x3d254aca	0.040354528
142	0x3eb8f776	0.36126298
143	0x3e7626bb	0.24038212
144	0xbe22c0f1	-0.15893914
145	0xbf023300	-0.5085907
146	0x3db76963	0.08955648
147	0xbefa7b4d	-0.48922196
148	0x3f0bdad4	0.5463078
149	0x3dc7e4d9	0.09760446
150	0x3edb65a6	0.4285099
151	0xbd48c972	-0.04902024
152	0xbfc0f0cc	-1.5073485
153	0xbdf5e8ff	-0.12007331
154	0xbe297cfb	-0.16551583
155	0xbec2fa76	-0.38081712
156	0xbcc98a86	-0.024602186
157	0x3e17cada	0.14823475
158	0xbefa42af	-0.48879
159	0x3e5d32e0	0.21601439
160	0x3e7576cf	0.23971103
161	0xbe69a83f	-0.22818087
162	0xbd625b73	-0.055262994
163	0x3ebae842	0.36505324
164	0x3cf6463e	0.030062791
165	0x3ee1966f	0.44060084
166	0x3ef9fb0c	0.48824346
167	0xbf6cc0eb	-0.9248187
168	0x3eceb97b	0.40375885
169	0xbf0ad9eb	-0.54238766
170	0xbdd31349	-0.10306413
171	0x3de9e81c	0.114212245
172	0xbf6967e2	-0.9117414
173	0x3ea7ec18	0.32797313
174	0x3d6ab704	0.057303444
175	0xbeae7b8f	-0.34078643
176	0x3c6db843	0.014509263
177	0x3e600f73	0.21880893
178	0xbeafc2df	-0.34328362
179	0xbc1301ba	-0.00897258
180	0xbef9c0ea	-0.48779994
181	0xbea08ff5	-0.3135983
182	0xbd8286ab	-0.06373342
183	0xbe7e7101	-0.24847795
184	0xbf1e44b2	-0.6182357
185	0xbea1b75c	-0.31585205
186	0xbed5bbf0	-0.41744947
187	0xbf90ca91	-1.1311818
188	0xbf583c7c	-0.8446729
189	0xbe00161e	-0.12508437
190	0xbde15d50	-0.11004126
191	0xbe027f81	-0.12743951
192	0xbdc1c67e	-0.094616875
193	0xbf0e2791	-0.55529124
194	0xbf8bfca7	-1.0936478
195	0xbee24bdc	-0.441985
196	0x3c317a6a	0.010832408
197	0xbf61dd0a	-0.88227904
198	0x3f29772a	0.66197455
199	0x3f29ac3d	0.6627844
200	0xbf2d404c	-0.67676234
201	0x3df566fb	0.119825326
202	0xbf0f0508	-0.5586705
203	0xbeeeb9c4	-0.46626103
204	0x3e842a90	0.25813723
205	0x3e882100	0.26587677
206	0xbeca5c51	-0.39523557
207	0xbe9ae934	-0.30256045
208	0xbf078c05	-0.5294803
209	0x3f26ccc8	0.6515622
210	0xbe1670b7	-0.14691435
211	0xbdfd6f2c	-0.1237472
212	0xbeb676e7	-0.3563759
213	0x3ef5d336	0.48012704
214	0xbecba4fc	-0.3977431
215	0x3f9e8e50	1.238718
216	0x3ea8a7e8	0.32940602
217	0x3cc681e5	0.02423186
218	0xbf9fbad3	-1.2478889
219	0x3e571f5e	0.2100806
220	0xbe36cc07	-0.17851268
221	0xbfd52566	-1.6652038
222	0xbe78a482	-0.24281505
223	0xbf899d24	-1.075108
224	0xbea4baa8	-0.32173657
225	0xbef005a2	-0.46879297
226	0x3dfa24fd	0.12214086
227	0x3f8d9ca3	1.1063427
228	0xbd4fd0be	-0.05073618
229	0x3e12d025	0.14337213
230	0xbd5bba12	-0.053644247
231	0x3ec90140	0.39258766
232	0xbdb58d4e	-0.08864842
233	0x3cf14d7b	0.02945589
234	0x3f0017ae	0.5003613
235	0xbe9fb5cd	-0.3119339
236	0xbff717e1	-1.9304162
237	0xbf2fca59	-0.68668133
238	0xbf87d3a7	-1.0611466
239	0xbf023c6d	-0.5087345
240	0xbedab627	-0.42717096
241	0xbeac9881	-0.337101
242	0xbe90d841	-0.2828999
243	0xbe90823d	-0.28224364
244	0xbedce4c6	-0.4314329
245	0x3efc6502	0.49295813
246	0x3e1ff553	0.15620928
247	0xbcd956a3	-0.02653057
248	0x3ec74c60	0.38925457
249	0x3f4bb558	0.79573584
250	0xbe480e45	-0.19536693
251	0xbec622da	-0.38698465
252	0x3e12256b	0.14272086
253	0x3d4b1719	0.049582575
254	0x3f3b5d93	0.7318966
255	0xbf21de4a	-0.6322981

pre_layer.3.bias f4 [48]
0	0x3e45389f	0.1925988
1	0x3f1c60cb	0.61085194
2	0x3e96af30	0.29430532
3	0xbd5a33a8	-0.05327192
4	0x3e09f117	0.13470875
5	0x3e4d5886	0.200533
6	0x3ee2f690	0.44328737
7	0x3f5d85ff	0.86532587
8	0x3d9fce49	0.07803018
9	0x3f252fe8	0.64526224
10	0x3eb2c181	0.34913257
11	0x3dfd4a6a	0.12367709
12	0x3eed9f3f	0.46410558
13	0xc011ffa4	-2.281228
14	0x3f065216	0.52469003
15	0xbe9d6965	-0.30744472
16	0x3e935e47	0.28782865
17	0xbf3e633f	-0.7437019
18	0x3e1067ab	0.14102046
19	0xbd27f548	-0.041005403
20	0xbe6f3cd0	-0.23363042
21	0xbf05d8df	-0.52284044
22	0x3d00a44d	0.03140669
23	0x3f07bcc0	0.53022385
24	0xbbd09801	-0.0063657765
25	0xbe1099f3	-0.14121227
26	0xbe261b3e	-0.1622133
27	0xbf0241ea	-0.50881827
28	0xbf548bdd	-0.83025914
29	0xbff31b33	-1.8992676
30	0x3f13132e	0.5745114
31	0xbb98e657	-0.0046661305
32	0x3f2bc869	0.67102677
33	0x3e9e0d4a	0.30869514
34	0xbd14b654	-0.036306694
35	0x3ef47c19	0.4775093
36	0x3fcdaacf	1.6067752
37	0xbec8844e	-0.3916344
38	0xbe189ad9	-0.1490282
39	0xbe1dade8	-0.15398371
40	0xbf5cb2a3	-0.8621008
41	0xbebc24bd	-0.3674678
42	0xbfa2cd1b	-1.2718843
43	0xbdc76473	-0.09735956
44	0xbdeb13ad	-0.11478362
45	0x3e31c0f9	0.1735877
46	0x3f16147c	0.58625007
47	0xbf593600	-0.8484802

pre_layer.6.weight f4 [64, 48, 2, 2]
0	0x3dfee2a1	0.1244557
1	0xbd5170d6	-0.051133
2	0xbf208236	-0.62698686
3	0xbe8d2257	-0.27565262
4	0xbf296dc9	-0.66183144
5	0xbe6f65c2	-0.23378661
6	0xbebe3a30	-0.3715377
7	0x3eefd713	0.46843776
8	0x3f61de04	0.88229394
9	0x3f9bbf87	1.2167825
10	0xbe5e9d9d	-0.21739812
11	0xbf6d350f	-0.92659086
12	0x3e8f2197	0.27955315
13	0x3e3bf216	0.18354067
14	0xbf35b13d	-0.7097357
15	0xbe31a2c0	-0.1734724
16	0xbf00fbb2	-0.50384057
17	0xbea77693	-0.32707652
18	0xbe8ef83a	-0.27923757
19	0xbeccb227	-0.3997967
20	0x3ea07eb4	0.31346667
21	0x3f60e8d6	0.8785528
22	0xbf3f6b29	-0.7477289
23	0xbfd6799b	-1.6755861
24	0x3e8b7fed	0.27246037
25	0x3f02dd91	0.51119334
26	0x3ee85024	0.45373642
27	0x3e49dbf5	0.19712813
28	0xbdeaebae	-0.114707336
29	0xbf0f294f	-0.55922407
30	0x3defc2e2	0.11707093
31	0xbe5baa3c	-0.21451658
32	0x3f1b23fb	0.60601777
33	0x3f6166a6	0.88047254
34	0x3ef7aa38	0.48372054
35	0x3e4eb698	0.20186841
36	0x3fc45fa8	1.5341692
37	0x3f9422cf	1.1573123
38	0xbf411125	-0.75416785
39	0xbfbd7dfd	-1.4804074
40	0x3f0e3f3b	0.5556523
41	0x3f4d26af	0.8013715
42	0x3f03e9c1	0.51528555
43	0x3e69873a	0.22805491
44	0x3e380835	0.1797188
45	0xbe1c268d	-0.15249081
46	0x3d649759	0.0558084
47	0x3fa6f22b	1.3042654
48	0xbec332ef	-0.38124797
49	0xbdc1d4c5	-0.09464411
50	0xbd91bb69	-0.07115824
51	0xbe5819f9	-0.21103658
52	0x3e7839f0	0.24240851
53	0xbedd3b3c	-0.43209255
54	0xbf17ebdd	-0.59344274
55	0xbe9152df	-0.28383538
56	0x3e088d87	0.13335238
57	0xbe8c5820	-0.27410984
58	0xbfa136be	-1.2594831
59	0x3ee87389	0.45400646
60	0xbf8dcf41	-1.1078874
61	0x3cf5da01	0.030011179
62	0xbeebe25c	-0.46071136
63	0xbf20b9b4	-0.6278336
64	0xbec63600	-0.38713074
65	0xbe53242e	-0.2061927
66	0x3b1bd890	0.0023780204
67	0xbf9d67a2	-1.2297251
68	0x3eac846f	0.3369479
69	0xbee7c12e	-0.45264572
70	0x3e9ebd3b	0.31003746
71	0xbea504a1	-0.32230094
72	0xbd5e357b	-0.05425022
73	0x3f1cb9ad	0.6122082
74	0x3d336bdd	0.04380404
75	0xbe99ac68	-0.30014348
76	0x3db0158b	0.08597859
77	0x3e338ce8	0.1753422
78	0xbf92c79a	-1.1467164
79	0xbfa5d629	-1.2955981
80	0x3e74feb5	0.23925288
81	0xbed42a1c	-0.41438377
82	0x3e4480e1	0.19189788
83	0xbeb3de58	-0.35130572
84	0xbf8f246c	-1.118299
85	0xbf88cb11	-1.0686971
86	0x3fb18b94	1.3870721
87	0x3fbad203	1.459534
88	0xbe81f4d7	-0.2538211
89	0x3f39748e	0.72443473
90	0xbe1b488b	-0.15164392
91	0xbe5f0e3b	-0.21782772
92	0xbf7b39c1	-0.98135
93	0xbd571290	-0.052507937
94	0x3f13ac47	0.5768475
95	0x3f44657d	0.7671736
96	0x3e26d4a7	0.16292058
97	0xbe1fec3e	-0.15617463
98	0xbe37c54d	-0.17946358
99	0xbf797eb8	-0.9745898
100	0xbea2f76b	-0.3182939
101	0xbf9fd04a	-1.248544
102	0x3f453fa9	0.7705026
103	0x3fa1dc2a	1.2645314
104	0xbf81a5df	-1.0128745
105	0xbf04faa5	-0.51944953
106	0x3f63af8a	0.88939726
107	0x3fb1ea1e	1.3899572
108	0x3e81d528	0.25357938
109	0xbdf6bf20	-0.12048173
110	0xbf16c02a	-0.5888697
111	0xbeb0179a	-0.34393007
112	0x3ef94586	0.48685855
113	0x3f6bee32	0.9216033
114	0x3e604a3a	0.21903315
115	0xbf16a4d3	-0.5884525
116	0xbeac8eef	-0.337028
117	0x3e162392	0.14662006
118	0xbf1e068c	-0.6172874
119	0xbf80b27d	-1.005447
120	0xbd6cb3dc	-0.057788715
121	0xbdd4e6cf	-0.10395586
122	0x3e5c687b	0.21524231
123	0xbee03e7f	-0.4379768
124	0x3d1f4faf	0.03889435
125	0x3e1387b5	0.14407237
126	0xbf233f45	-0.63768417
127	0xbe9e5fee	-0.30932564
128	0xbf6092fb	-0.87724274
129	0xbe53acc6	-0.20671377
130	0x3e85142c	0.25991952
131	0x3e9d3e4b	0.30711588
132	0x3d129d43	0.035794508
133	0xbf260e6e	-0.6486577
134	0x3f903af3	1.126799
135	0x3f944249	1.1582729
136	0x3ed86f62	0.42272478
137	0x3e793d63	0.24339823
138	0xbea8f646	-0.33000392
139	0xbec4ba30	-0.384233
140	0x3f5f14e3	0.87141246
141	0x3f56f241	0.839634
142	0xbf19e32f	-0.6011228
143	0xbe8808a0	-0.2656908
144	0x3f37bdce	0.71773994
145	0x3f292b52	0.66081727
146	0xbe76761f	-0.24068497
147	0xbfbd136b	-1.4771551
148	0xbf56bf9f	-0.8388614
149	0xbd88d734	-0.06681672
150	0xbe85f5a2	-0.26163965
151	0x3ee9b447	0.45645353
152	0x3f0da5dd	0.5533121
153	0x3f45178d	0.7698906
154	0xbf74b4c3	-0.9558832
155	0xbf1db5f2	-0.6160575
156	0x3ed6191d	0.41816035
157	0x3ed26283	0.41090783
158	0xbd800ea9	-0.06252796
159	0x3f85fce8	1.0467806
160	0xbf2850ea	-0.65748465
161	0x3eda3a30	0.4262252
162	0xbe9d7bc8	-0.307585
163	0xbf042911	-0.5162516
164	0x3d93ab27	0.07210379
165	0xbf06e4da	-0.5269295
166	0x3e54833c	0.20753187
167	0xbee4a522	-0.44657236
168	0x3f63052c	0.88679767
169	0xbf2d2368	-0.6763215
170	0x3eb0c6bc	0.34526622
171	0xbe6b64af	-0.22987626
172	0x3e3cfeb3	0.18456535
173	0xbf1a16fe	-0.60191333
174	0x3e1c423d	0.15259643
175	0xbdab2332	-0.08356322
176	0xbe43a439	-0.19105615
177	0xbe93a000	-0.28833008
178	0x3f7526c2	0.95762265
179	0x3dfe5d99	0.12420196
180	0xbe121577	-0.14266
181	0xbe27a368	-0.16370928
182	0xbf24fae1	-0.6444531
183	0xbf01e8cc	-0.50745845
184	0x3da83f4b	0.08215197
185	0x3f2a16b4	0.6644089
186	0xbec7747d	-0.3895606
187	0xbf282633	-0.6568329
188	0xbe61e818	-0.22061193
189	0xbf530fea	-0.8244616
190	0x3e1e5e4c	0.15465659
191	0xbebeb827	-0.37249872
192	0x3e66b77a	0.22530928
193	0x3ff369aa	1.9016621
194	0xbf06ae10	-0.5260935
195	0xbf2156eb	-0.6302325
196	0xbe7d15ed	-0.24715395
197	0xbf534981	-0.82534033
198	0xbed50f10	-0.41613054
199	0xbe9dc260	-0.3081236
200	0x3e89e146	0.26929682
201	0xbfaac34c	-1.334085
202	0x3ed9c115	0.42530122
203	0x3e68002f	0.2265632
204	0x3f35f979	0.7108379
205	0xbeb3e8ee	-0.3513865
206	0x3f03bee8	0.51463175
207	0xbee29373	-0.4425312
208	0xbf9de6cb	-1.2336057
209	0xbf3c717c	-0.73610663
210	0x3d7d158a	0.06178812
211	0x3ee9053a	0.455118
212	0xbeb7f2ad	-0.35927334
213	0x3efab4dd	0.48966113
214	0xc00aeb7a	-2.1706223
215	0xbf6f5590	-0.93489933
216	0xbf10e090	-0.56592655
217	0xbf032079	-0.51221424
218	0xbedb3542	-0.4281407
219	0x3dfd371f	0.12364029
220	0x3eae8d44	0.34092152
221	0xbefbe8a9	-0.49200943
222	0x3f0e91dd	0.5569132
223	0x3f881cd1	1.0633794
224	0xbe1c2756	-0.1524938
225	0x3c108663	0.008821103
226	0x3ea19e08	0.3156588
227	0x3f821f82	1.0165865
228	0xbf7ca22b	-0.9868495
229	0x3e5612ed	0.20905657
230	0x3e809faf	0.2512183
231	0x3ea285db	0.3174275
232	0x3dcb1208	0.099155486
233	0x3e964aed	0.2935404
234	0x3efdbb51	0.49556974
235	0xc02c1242	-2.6886144
236	0x3d8416ea	0.06449683
237	0x3f0a54f0	0.54035854
238	0x3eb0edd4	0.34556448
239	0x3f571f79	0.840324
240	0x3e87d891	0.26532415
241	0xbe90c86c	-0.2827791
242	0x3ec2ab5e	0.38021368
243	0x3e45fd74	0.19334966
244	0xbedc413a	-0.43018514
245	0xbe04bbb6	-0.12962231
246	0x3d3b6f50	0.045760453
247	0x3ecc06d4	0.3984896
248	0xbd9a30ee	-0.07528864
249	0xbe051431	-0.12995984
250	0x3f4e36d9	0.8055244
251	0x3f558cb1	0.83417803
252	0xbdb75b7e	-0.089529976
253	0x3e18cc04	0.14921576
254	0xbe61471d	-0.21999784
255	0x3f99f314	1.2027307

pre_layer.6.bias f4 [64]
0	0xbe561364	-0.20905834
1	0xbf434001	-0.7626954
2	0x3e497b6c	0.19675988
3	0xbe95b748	-0.29241395
4	0x3f0b5885	0.54431945
5	0x3ea84cb1	0.3287101
6	0x3ea0a10b	0.31372866
7	0x3f860e87	1.0473183
8	0x3f276a77	0.6539683
9	0x3ea4219e	0.32056898
10	0x3f7c1819	0.9847427
11	0xbfeb4e66	-1.83833
12	0x3fa2f12e	1.2729852
13	0x3e38a36d	0.18031092
14	0x3e066a34	0.13126451
15	0x3ffbc67c	1.9669948
16	0x3f10e463	0.5659849
17	0x3f30a2fd	0.689987
18	0xbffaffa8	-1.960927
19	0x3e9a07f7	0.30084202
20	0x3f54f37b	0.8318402
21	0xbd56c152	-0.05243046
22	0xbff06a3b	-1.8782419
23	0xbfe2f3c2	-1.7730639
24	0x3f05348a	0.52033293
25	0xc017facb	-2.3746822
26	0xbf86ab04	-1.052094
27	0x3f2389a4	0.638819
28	0x3f1862a1	0.59525496
29	0xbf0170fe	-0.5056304
30	0x3cb6389c	0.02224379
31	0x3f200909	0.62513787
32	0xbf4473bd	-0.767391
33	0x4007a710	2.1195717
34	0x3f899f95	1.0751826
35	0xbe62d664	-0.22152096
36	0x3ea638f6	0.32465333
37	0xbf581586	-0.8440784
38	0x3fb4a933	1.4114136
39	0x3f9b0c67	1.211316
40	0x401ad3b9	2.4191725
41	0xbfb2bee1	-1.3964502
42	0xbeb6ee62	-0.35728747
43	0xbf84be28	-1.0370531
44	0x3d81f333	0.06345215
45	0xbf902fd0	-1.1264591
46	0xbe0f7728	-0.14010298
47	0x3fb6ad04	1.427155
48	0xbd89c51c	-0.06727049
49	0x3f048750	0.5176897
50	0x3f12ecff	0.5739288
51	0x4029e6eb	2.654719
52	0xbf15fcfb	-0.5858914
53	0xbe87c888	-0.2652018
54	0xbf9702ef	-1.179777
55	0xbdc32f98	-0.09530562
56	0x3f6bb914	0.9207928
57	0x3f4fb22b	0.8113124
58	0x3e9b65dc	0.3035115
59	0xbd12f13f	-0.0358746
60	0x3f4809d0	0.7813997
61	0xbf981af3	-1.1883224
62	0x3fceefa1	1.6166879
63	0x3f0f0a57	0.5587515

conv4.weight f4 [128, 256]
0	0xbea461a0	-0.32105732
1	0xbea63276	-0.32460374
2	0x3d191531	0.037373725
3	0xbe4c80b1	-0.19970967
4	0xbf16e302	-0.58940136
5	0xbeee5d95	-0.46555772
6	0xbe8fc358	-0.28078723
7	0xbdbcfd81	-0.092280395
8	0xbebffba9	-0.3749669
9	0x3ec07967	0.37592623
10	0x3e3ce203	0.18445592
11	0xbe61b247	-0.22040664
12	0xbe7dddbf	-0.2479162
13	0xbec60df0	-0.38682508
14	0xbeae85ad	-0.34086362
15	0xbe6c4188	-0.23071873
16	0xbe79a35f	-0.24378727
17	0xbeca17c4	-0.39471257
18	0x3f05d88f	0.5228357
19	0xbe16e560	-0.14735937
20	0xbd71087a	-0.058845975
21	0x3d8ec9b3	0.06972065
22	0xbe4cd2e7	-0.20002328
23	0xbe531977	-0.20615183
24	0x3de34581	0.11097241
25	0x3d0f91be	0.0350511
26	0xbe85286e	-0.26007408
27	0x3ebb908d	0.3663372
28	0x3ef8281b	0.48468098
29	0x3e8223a5	0.2541782
30	0x3e1eae2a	0.15496126
31	0xbec66610	-0.38749743
32	0x3d08c6e4	0.033392802
33	0xbe764a56	-0.24051794
34	0x3a403ad2	0.00073329837
35	0x3e88d35b	0.2672375
36	0x3d191dfb	0.037382107
37	0xbe87956d	-0.2648119
38	0xbe39f1f4	-0.18158704
39	0x3d827d1a	0.063715175
40	0xbdec110b	-0.11526688
41	0xbd6cf410	-0.057849944
42	0xbde15d38	-0.11004108
43	0xbd9c7f4f	-0.0764147
44	0xbf078eeb	-0.5295245
45	0xbf02d405	-0.51104766
46	0xbd73bc16	-0.059505545
47	0xbebf0461	-0.37308028
48	0xbeb87056	-0.36023206
49	0xbe9f44f0	-0.31107283
50	0x3e641720	0.22274446
51	0xbee6dc9f	-0.45090196
52	0xbec349d0	-0.38142252
53	0x3d59a5b6	0.05313655
54	0x3db6408b	0.08899029
55	0xbf135fbb	-0.5756795
56	0x3dc4a90a	0.09602554
57	0x3d00fea4	0.031492844
58	0xbf088b8f	-0.5333795
59	0xbe03ce06	-0.1287156
60	0xbea9b36f	-0.3314471
61	0xbe070294	-0.13184577
62	0xbef55abd	-0.4792079
63	0xbe964d48	-0.29355836
64	0xbea2f148	-0.31824708
65	0x3df37624	0.11887768
66	0xbdb031dc	-0.0860326
67	0xbd37cfb6	-0.044875823
68	0xbe784ec6	-0.242488
69	0xbf15562b	-0.58334607
70	0x3e275f99	0.16345061
71	0xbee1d96b	-0.4411119
72	0x3cb41742	0.021983746
73	0xbe37bc30	-0.17942882
74	0x3d059e6a	0.03262178
75	0xbc13b7da	-0.009016002
76	0xbf055e13	-0.5209667
77	0xbe16786b	-0.14694373
78	0x3e2cc194	0.16870719
79	0x3d229c02	0.039699562
80	0xbd40ad88	-0.047040492
81	0x3e32f4d2	0.17476204
82	0xbdb43594	-0.08799282
83	0xbe3193a3	-0.17341475
84	0xbe4d148f	-0.20027374
85	0xbee8e67b	-0.45488343
86	0x3db5ac0e	0.088707075
87	0xbd8c66a4	-0.06855515
88	0xbe97801a	-0.2958992
89	0xbec9901c	-0.3936776
90	0x3e85d243	0.2613698
91	0x3e3c431b	0.18384974
92	0xbd753ded	-0.05987351
93	0xbe64324b	-0.2228481
94	0xbda36fd8	-0.07980317
95	0x3e61468c	0.21999568
96	0xbe6455be	-0.22298333
97	0xbeaab8e8	-0.33344197
98	0xbebd8081	-0.37012103
99	0xbe4ddf30	-0.2010467
100	0x3eb1d86f	0.34735438
101	0x3eacbc3d	0.33737364
102	0x3f06fcf5	0.5272973
103	0x3efa1cdd	0.48850146
104	0xbf07679f	-0.5289249
105	0xbe5b6a64	-0.21427304
106	0xbe7d6a02	-0.2474747
107	0xbf3fb5cf	-0.7488679
108	0xbe342fc5	-0.17596348
109	0xbe4fcb26	-0.20292339
110	0xbf1feb24	-0.6246817
111	0x3e61d59d	0.22054143
112	0xbe684ceb	-0.22685592
113	0xbe9231f0	-0.28553724
114	0xbda069b5	-0.07832662
115	0xbf615166	-0.8801483
116	0x3dd762b4	0.10516873
117	0xbea60a84	-0.32429898
118	0xbe0283af	-0.12745546
119	0xbdf4436d	-0.11926923
120	0xbea6f213	-0.32606563
121	0x3e117245	0.14203747
122	0xbec3461a	-0.3813942
123	0xbca3ffd9	-0.020019459
124	0xbe71b821	-0.23605396
125	0xbe457a99	-0.19285049
126	0x3ee156c1	0.440115
127	0x3f2826ab	0.65684
128	0xbd35df98	-0.04440269
129	0xbe64e3f9	-0.2235259
130	0x3db4a180	0.08819866
131	0x3d11cd49	0.035596166
132	0x3ef695e3	0.4816123
133	0xbdbb2f10	-0.09139836
134	0x3cfce59e	0.030871209
135	0x3c8db892	0.017299924
136	0x3da5b3a8	0.08090907
137	0xbebccb70	-0.3687396
138	0x3e047d4f	0.12938426
139	0xbd253502	-0.040333755
140	0xbdbe0e5a	-0.09280081
141	0xbeecee4d	-0.4627556
142	0x3df22639	0.11823697
143	0xbe8532f4	-0.26015437
144	0xbf2bac74	-0.6706002
145	0xbf072a31	-0.52798754
146	0xbec12881	-0.37726215
147	0xbee5aaa6	-0.44856757
148	0xbd4c338c	-0.049853846
149	0xbe946b6c	-0.28988206
150	0x3e03cf24	0.12871987
151	0x3ea45406	0.32095355
152	0xbeee7947	-0.46576902
153	0xbe10547b	-0.14094727
154	0xbdf62901	-0.120195396
155	0xbe492ec3	-0.19646744
156	0xbef46e06	-0.4774019
157	0xbe179e0d	-0.14806385
158	0x3b039c04	0.0020082006
159	0xbf2c2930	-0.6725035
160	0x3c9f3a3e	0.019436952
161	0xbb626531	-0.0034545178
162	0xbecf81cd	-0.40528718
163	0x3da4a50e	0.08039294
164	0xbdddb0d9	-0.10824747
165	0x3e1e6acf	0.15470432
166	0x3d467c6b	0.048458498
167	0x3e025665	0.1272827
168	0xbd22cbef	-0.039745267
169	0x3d9c8f75	0.0764455
170	0x3ceeef49	0.029166834
171	0xbecd5658	-0.40104938
172	0xbe201db4	-0.15636331
173	0x3ed812f0	0.42201948
174	0xbe27b118	-0.1637615
175	0xbe82bf84	-0.2553674
176	0xbe4cd781	-0.20004083
177	0xbeabb50f	-0.33536574
178	0xbe792b94	-0.2433303
179	0xbedc46ce	-0.4302277
180	0xbe8415b8	-0.2579782
181	0xbe23eeb2	-0.16009024
182	0x3e5fbe53	0.21849947
183	0xbeebb081	-0.460331
184	0xbf0f0b52	-0.5587665
185	0xbf2eda58	-0.68301916
186	0xbe39b0ed	-0.18133898
187	0xbe21db77	-0.15806375
188	0xbea5ddd0	-0.32395792
189	0x3e2e9c1b	0.17051737
190	0xbe7adf64	-0.2449928
191	0xbe9373c1	-0.2879925
192	0x3e50f2e1	0.20405151
193	0xbf014b29	-0.5050531
194	0xbea07e1e	-0.3134622
195	0xbebe0533	-0.37113342
196	0xbe239b0c	-0.15977114
197	0xbe5ca48a	-0.21547142
198	0x3d2d32d4	0.0422848
199	0xbf29b764	-0.66295457
200	0xbeac22ee	-0.336204
201	0xbe870b7a	-0.26375943
202	0xbec9b132	-0.39393002
203	0xbee887e5	-0.4541618
204	0xbd9024b5	-0.07038251
205	0xbe9888a1	-0.2979174
206	0xbe6036f2	-0.2189596
207	0xbf0c0bc2	-0.5470544
208	0x3e6140d5	0.21997388
209	0xbf053c15	-0.520448
210	0xbd89c47f	-0.06726932
211	0x3e31d720	0.1736722
212	0xbe249989	-0.16074194
213	0xbf218e2e	-0.63107574
214	0xbf3c127f	-0.7346572
215	0xbe84a946	-0.25910395
216	0x3ec23e89	0.37938336
217	0x3e4420c0	0.19153118
218	0x3e49b459	0.19697703
219	0xbe88500b	-0.26623568
220	0xbf27c286	-0.65531194
221	0xbea73979	-0.32661036
222	0x3a2f2619	0.0006681397
223	0x3e7fd7a5	0.24984606
224	0xbd00a24c	-0.03140478
225	0xbd8dcddf	-0.069240324
226	0x3d3ecb31	0.046580497
227	0x3e425d6a	0.18980947
228	0xbedc87a7	-0.43072245
229	0xbef11e04	-0.47093213
230	0x3ad20551	0.0016023313
231	0xbf13af2b	-0.5768916
232	0xbdbe4a7e	-0.09291552
233	0x3e8ab848	0.2709372
234	0x3ea30acc	0.31844175
235	0xbe4f3f2f	-0.20238946
236	0xbf305ad4	-0.6888859
237	0xbeacc081	-0.3374062
238	0xbf20642d	-0.62652856
239	0xbf1bf555	-0.6092122
240	0xbe170504	-0.14748007
241	0xbec18fcf	-0.3780503
242	0x3ec0596c	0.37568223
243	0xbf11ab5b	-0.5690209
244	0xbedeedd6	-0.4354083
245	0xbe80bb40	-0.2514286
246	0xbe3f8153	-0.18701677
247	0x3e38855a	0.1801962
248	0xbf21b486	-0.6316608
249	0xbf5c3dbf	-0.8603172
250	0xbd68fccf	-0.056881722
251	0xbe526463	-0.20546107
252	0xbf127450	-0.5720873
253	0x3d78a5ff	0.06070518
254	0x3eb949f4	0.36189234
255	0x3e0fdd04	0.14049155

conv4.bias f4 [128]
0	0xbd38299b	-0.044961553
1	0xbef42c83	-0.4769021
2	0x3f4d64a2	0.8023168
3	0xbf4e5aa0	-0.8060703
4	0x40283cf0	2.6287193
5	0x3edd690d	0.4324421
6	0xbdd46c25	-0.103721894
7	0xbfb82b71	-1.4388257
8	0xbdab8eb4	-0.08376828
9	0xbff4ef84	-1.9135594
10	0xbf9f698e	-1.2454088
11	0xbf723273	-0.9460823
12	0xbea03609	-0.31291226
13	0xbee4a2be	-0.44655412
14	0x3d842ab6	0.06453459
15	0x3f8494a2	1.0357859
16	0xbfb379dd	-1.4021565
17	0x3f8f9ef8	1.1220388
18	0xbf5cc3df	-0.86236376
19	0x3f8a69b8	1.0813513
20	0xbed05f01	-0.40697482
21	0xbfb19758	-1.3874311
22	0x3eb6c511	0.35697225
23	0x3e2e4912	0.17020062
24	0x3acb2dc0	0.0015501305
25	0x408395b2	4.1120234
26	0x3f8e95a7	1.113942
27	0x3f7e634d	0.9937027
28	0xbfa8699e	-1.3157232
29	0xbf4aa3ee	-0.79156387
30	0x3f3343ab	0.7002513
31	0xbff8f91c	-1.9451022
32	0x3da732df	0.08164
33	0x3f4fad3b	0.81123704
34	0x3f31fee9	0.6952959
35	0x3eea3db5	0.45750204
36	0x3ff04e42	1.8773882
37	0xbf4d4596	-0.80184305
38	0xbe1b25dd	-0.15151162
39	0x3f5ea189	0.86965233
40	0xbe3ca171	-0.1842096
41	0xbee2f158	-0.44324756
42	0xbf74de7e	-0.95651996
43	0xbd87a86c	-0.06623921
44	0xbfa49738	-1.2858648
45	0xbe8558ff	-0.2604446
46	0x401efd8e	2.4842257
47	0xbfa234cd	-1.2672364
48	0x3dba214c	0.09088382
49	0x3ddb019f	0.106936686
50	0x3f3d8787	0.74034923
51	0xbf2b6a02	-0.6695863
52	0xbf176d51	-0.5915118
53	0xbf252e5c	-0.64523864
54	0xc0044297	-2.0665643
55	0xbdd48f32	-0.10378875
56	0x3ceb0bdb	0.028692177
57	0x3f185047	0.59497494
58	0xbed581cb	-0.41700587
59	0xbdb520f1	-0.08844174
60	0x40776238	3.8653698
61	0x3fa41006	1.281739
62	0x3ea1419e	0.31495374
63	0xbe8a0511	-0.2695699
64	0xbe926d4c	-0.28599012
65	0x3fc8a19c	1.5674319
66	0xbf25bc6e	-0.64740646
67	0xbf1d32f3	-0.6140587
68	0xbf90b1fa	-1.1304314
69	0x3f9d21b5	1.2275912
70	0xbeb8b26a	-0.3607362
71	0xc01e4489	-2.472933
72	0xbfaf236c	-1.3682685
73	0xbddb1287	-0.10696893
74	0xbf43d253	-0.76492804
75	0x3cb07633	0.021540737
76	0xbf3b66c4	-0.7320368
77	0xbf93abda	-1.153682
78	0xbfc07db9	-1.5038368
79	0x3f6bf6e4	0.921736
80	0x3fa30a3a	1.2737496
81	0x3f5df85d	0.867071
82	0xbf6dd119	-0.9289718
83	0xbf3265cf	-0.696866
84	0xbf20881d	-0.6270769
85	0x3e86087a	0.26178342
86	0xbf43b727	-0.76451343
87	0xbd84e04a	-0.06488092
88	0xbec86851	-0.39142087
89	0x3e9ad8ff	0.3024368
90	0xbe9988b7	-0.29987118
91	0xbe78c07d	-0.24292178
92	0xbf377721	-0.7166615
93	0x3f38922f	0.7209806
94	0x40d4bbb6	6.647914
95	0x3f9ba831	1.2160703
96	0xbfbc0f4f	-1.4692172
97	0xbebc2d60	-0.36753368
98	0xbfaf4209	-1.3692027
99	0xbd1ab0bd	-0.037766207
100	0xbf0ac521	-0.54207045
101	0x3e4b60ad	0.19861098
102	0x3f6cedd1	0.9255038
103	0x3ee9b332	0.45644528
104	0xc00e987a	-2.2280564
105	0xbf6fffee	-0.9374989
106	0x3fa6ff99	1.3046752
107	0x409060a9	4.5117993
108	0xbf135b7e	-0.5756148
109	0x3f1260c8	0.57178926
110	0xbf5e48a4	-0.8682959
111	0xbf9f8357	-1.2461957
112	0x3ee08ac4	0.4385587
113	0xbe93f861	-0.28900436
114	0x3e32e30f	0.17469428
115	0xbeb9fc9e	-0.36325544
116	0x3f5d6906	0.8648838
117	0x3db011be	0.08597134
118	0x3edc4ee8	0.4302895
119	0x3e6129a2	0.21988538
120	0xbe4ee22e	-0.20203468
121	0xbdd0c1bf	-0.10193204
122	0xbe05cf47	-0.13067351
123	0xbf283e1f	-0.6571979
124	0xbdc3661f	-0.095409624
125	0x3fd6ec41	1.6790849
126	0x3ed1823a	0.40919667
127	0xbfc0b14f	-1.505411

conv5_1.weight f4 [1, 128]
0	0x3ddb592e	0.10710369
1	0x3e10dd48	0.14146912
2	0x3e264a22	0.16239217
3	0x3dd4f566	0.103983685
4	0x3c993010	0.018699676
5	0x3d99e077	0.075135164
6	0x3e91dfec	0.2849115
7	0xbc056916	-0.00814273
8	0x3dd16c5a	0.102257445
9	0xbeb3f0d4	-0.35144675
10	0xbc2e9705	-0.010656123
11	0xbbbcafdb	-0.0057582683
12	0xbd2c254d	-0.04202776
13	0x3d94c2e0	0.07263732
14	0x3da69528	0.08133918
15	0x3df6991d	0.12040923
16	0xbd737655	-0.059439022
17	0x3c452a6b	0.012034039
18	0x3ce7a646	0.028277528
19	0x3d87b5cf	0.06626474
20	0x3bc77570	0.0060869977
21	0xbe679fc8	-0.22619545
22	0xbc1dd8d5	-0.009634216
23	0x3e334212	0.17505673
24	0x3daa2f4d	0.08309803
25	0xbd75cf58	-0.06001219
26	0x3e10ea1a	0.14151803
27	0x3d8d7f57	0.06909054
28	0xbc1e3b71	-0.009657727
29	0xbda7beb4	-0.081906706
30	0x3d665a78	0.05623862
31	0xbeba4676	-0.36381882
32	0x3db81d1a	0.08989926
33	0x3e5daad2	0.21647194
34	0xbd6d474d	-0.057929326
35	0x3e5f60ab	0.2181422
36	0xbd580fab	-0.052749317
37	0xbb4d90c8	-0.0031366814
38	0x3e1261e6	0.14295158
39	0x3d8a1a64	0.06743315
40	0x3df05b4a	0.11736162
41	0xbd16ed0b	-0.036847156
42	0x3d19e968	0.03757611
43	0xbdc306a8	-0.09522754
44	0x3d8e7025	0.069549836
45	0xbd7f6c21	-0.06235898
46	0x3da157f7	0.07878106
47	0xbda82899	-0.082108684
48	0x3d66358e	0.056203417
49	0xbda12e13	-0.07870116
50	0xbd8b93ba	-0.06815286
51	0xbdb8c956	-0.09022777
52	0xbdaf4a28	-0.08559066
53	0x3cf5f4c7	0.030023945
54	0xbf10ae2e	-0.5651578
55	0x3e13ded3	0.1444047
56	0x3da844f4	0.08216277
57	0x3efe2668	0.49638677
58	0x3dd4b0cf	0.10385286
59	0xbcd8b8c1	-0.026455285
60	0xbde7a894	-0.113114506
61	0xbdba8fe6	-0.09109478
62	0xbd798055	-0.060913403
63	0xbc8104d7	-0.015749378
64	0x3dbdec31	0.092735656
65	0xbc4b8090	-0.012420788
66	0x3deab384	0.11460021
67	0xbd73bdaa	-0.05950705
68	0xbd919a1d	-0.07109473
69	0x3d75a02f	0.059967216
70	0x3f096d78	0.5368266
71	0xbf1292ef	-0.5725545
72	0xbd4eebe6	-0.05051794
73	0xbd13e587	-0.036107566
74	0x3c8ecee5	0.01743264
75	0x3d98a8e7	0.074540906
76	0xbcff25e6	-0.031146001
77	0xbe98bf8a	-0.29833633
78	0x3d1c0b8d	0.038096953
79	0x3c9f55f1	0.01945016
80	0x3d96354d	0.07334385
81	0xbd6e17a0	-0.058128
82	0xbd80397a	-0.06260963
83	0xbdc67c3d	-0.09691665
84	0x3e34a4fd	0.17641063
85	0x3ddbb10d	0.10727129
86	0x3cd33843	0.025783664
87	0x3dc916cb	0.098188005
88	0xbcbaa98b	-0.022785923
89	0x3e8183ee	0.25295967
90	0x3ddcb8ea	0.10777457
91	0x3bfc8a46	0.007706913
92	0xbd5b69db	-0.05356775
93	0x3d88c932	0.06679
94	0xbc8faa14	-0.017537154
95	0x3daaf3ef	0.08347308
96	0xbcba160f	-0.022715596
97	0xbd8ad516	-0.06778924
98	0x3b5bb3ba	0.0033523873
99	0x3a0bea9c	0.0005337389
100	0x3d6f9f65	0.05850162
101	0xbd0a49c0	-0.03376174
102	0x3df300ca	0.11865385
103	0x3da0187a	0.078171685
104	0xbf2e543e	-0.68097293
105	0xbca307df	-0.019901214
106	0xbd72cf8d	-0.059279967
107	0xbd47ccef	-0.048779424
108	0xbbb29366	-0.0054497
109	0x3e2020a1	0.15637447
110	0x3b4dfc42	0.0031430875
111	0x3d0cf6a1	0.03441489
112	0x3de22cee	0.11043726
113	0x3d9ffe97	0.07812231
114	0x3dd1da4d	0.10246716
115	0x3e086268	0.13318789
116	0xbdb077e4	-0.08616617
117	0x3d9cff77	0.076659136
118	0x3e01b760	0.12667608
119	0x3d0ceb6e	0.03440421
120	0x3de9d0f4	0.11416808
121	0x3db1a296	0.08673589
122	0x3d80e9eb	0.06294616
123	0x3d7892c0	0.060686827
124	0x3db2f5e1	0.08738304
125	0x3dc4268e	0.09577666
126	0x3e80597c	0.2506827
127	0xbd52e699	-0.051489446

conv5_2.weight f4 [4, 128]
0	0x3b0b0b3c	0.0021216413
1	0x3bffcf4f	0.0078066955
2	0xbb1b7764	-0.0023722285
3	0x39ec97fc	0.00045126665
4	0x3b88dffe	0.0041770926
5	0x3a75b386	0.00093727594
6	0x3c197fa1	0.009368808
7	0xbb5765cc	-0.0032867072
8	0x39f435dd	0.00046579438
9	0x3cf538b1	0.02993426
10	0x3a74ee7c	0.0009343398
11	0xbb21e4f7	-0.0024703124
12	0x3a43745d	0.0007455999
13	0xbc0ea4a2	-0.008706244
14	0x3add9266	0.0016904592
15	0xb7fd4230	-3.0190771e-05
16	0xbd3aefe0	-0.04563892
17	0x3c65f689	0.014035829
18	0xbb5dedff	-0.003386378
19	0x38d84d93	0.00010314132
20	0x3be6f8b9	0.007048693
21	0xbebaf784	-0.36516964
22	0xbb7d643d	-0.0038664483
23	0x3a03ae56	0.00050232315
24	0x39eedbb2	0.00045558583
25	0xb9a6a67c	-0.00031786028
26	0xbb25929c	-0.0025264388
27	0xbaec7241	-0.0018039421
28	0x3a5a57e9	0.00083291397
29	0xba0453ef	-0.00050479075
30	0x3a8cd757	0.0010745329
31	0x3e5e5264	0.21711117
32	0x3b519b8f	0.003198359
33	0x3b0c6ce1	0.0021427202
34	0xbb27a4ef	-0.0025580486
35	0x39cfcaba	0.0003963316
36	0xba66a52a	-0.0008798415
37	0x3b08580d	0.0020804435
38	0x3ce39ab6	0.027783733
39	0x3a0dac06	0.00054043566
40	0x39a536e6	0.00031512155
41	0xbab5f3b2	-0.0013881831
42	0x3afee62e	0.0019447261
43	0x39f2c520	0.00046304706
44	0x3a3a174a	0.0007098807
45	0x3a4048da	0.00073350745
46	0x3b57ef77	0.0032949129
47	0xbb3c35aa	-0.002871851
48	0x3a8404f7	0.001007228
49	0xbadbf48b	-0.0016781254
50	0x3941cd9e	0.00018482513
51	0xbb22ff08	-0.0024871249
52	0xbac11cdb	-0.0014733331
53	0x3bcaba6a	0.006186773
54	0xbe5e17fc	-0.21688837
55	0xba2b5788	-0.00065361755
56	0xba4b1b15	-0.0007747871
57	0xbcc65575	-0.024210671
58	0x39dd1505	0.00042168066
59	0x3a893c0a	0.0010470164
60	0x3aaa5c26	0.0012997433
61	0xbb054ee2	-0.0020341207
62	0x3abcc348	0.001440146
63	0x3b82b83a	0.0039892467
64	0xbb277b9e	-0.002555586
65	0xbb48b1e2	-0.0030623605
66	0xb8d3025c	-0.000100617035
67	0xba4fec34	-0.00079316203
68	0x3a9f597f	0.0012157409
69	0x3a15edf5	0.0005719357
70	0x3c4d1573	0.012517321
71	0x3e399efd	0.18127055
72	0x3ad6de41	0.0016393141
73	0x3b453416	0.003009086
74	0xbc267343	-0.0101593165
75	0x3bb879e9	0.005629767
76	0x3b697233	0.0035621047
77	0xbdc7e9cc	-0.0976139
78	0x3d954172	0.07287873
79	0x3af03e46	0.0018329106
80	0xb9f7538c	-0.00047173759
81	0x3978d23b	0.0002372944
82	0xba802589	-0.0009776811
83	0x3aec7710	0.0018040854
84	0xba318784	-0.00067722076
85	0xb8164ff4	-3.583725e-05
86	0xbb3a7a6e	-0.0028454321
87	0x3855bf94	5.096158e-05
88	0xba19253b	-0.00058420346
89	0xbc7fa3ae	-0.015602989
90	0xbbb673a3	-0.005567984
91	0xbc248a0b	-0.010042678
92	0x3977020e	0.00023556521
93	0xbaa567e3	-0.0012619462
94	0xbb29f554	-0.002593358
95	0x390ddbad	0.00013528643
96	0x389dd71c	7.5264106e-05
97	0x3ab51fdb	0.0013818698
98	0x3c40e961	0.011774392
99	0x3be6955c	0.007036848
100	0x3aeecc6e	0.0018218884
101	0x3b726bd7	0.0036990547
102	0xbaffa8d3	-0.001950527
103	0x39ff5839	0.0004870312
104	0x3cdae2c9	0.026719468
105	0xbb6814fe	-0.0035412903
106	0xba04b032	-0.00050616555
107	0xba7daef8	-0.00096772565
108	0xbad8bbc7	-0.0016535454
109	0x3b8f9e23	0.004382865
110	0x3babfc90	0.0052486137
111	0x3a330496	0.00068289915
112	0xbb48b62b	-0.0030626159
113	0x3b701483	0.003663332
114	0xbac8eecf	-0.001532996
115	0x3aa937dd	0.0012910325
116	0x3b3c315e	0.0028715949
117	0x3bd7c651	0.0065849205
118	0xb9d43f7f	-0.000404831
119	0x3c4d3cca	0.0125267
120	0x3b5f4c74	0.003407267
121	0x3aa5e3ff	0.0012656449
122	0xba751807	-0.00093495887
123	0xbb1afb48	-0.002364831
124	0x38878b62	6.463264e-05
125	0x3a66e660	0.0008808132
126	0xbc8a19cc	-0.016858004
127	0xba8763f7	-0.0010329474
128	0x3be8ecf1	0.0071083237
129	0x3b52dde8	0.0032175723
130	0x38c6fa78	9.488029e-05
131	0x39a3f317	0.000312709
132	0x3a35d257	0.0006935945
133	0xb966795b	-0.00021979718
134	0x3d4a437d	0.049380768
135	0xbd03fc97	-0.03222331
136	0x3a997cc0	0.0011710152
137	0xbdfcef55	-0.123503365
138	0x3b3358ba	0.0027366118
139	0xbb8f6976	-0.0043765856
140	0x3b85d8dc	0.0040846895
141	0xbbe2c7ef	-0.0069208066
142	0x3ba32f5c	0.004980011
143	0x3a9ae1d2	0.0011816567
144	0xbc2f6c4c	-0.010706972
145	0xb9b60206	-0.00034715253
146	0xbbb36b28	-0.0054754205
147	0x39180b00	0.00014499947
148	0xbcc562f1	-0.02409503
149	0xbe375ffa	-0.17907706
150	0xbcbe1e2a	-0.023207743
151	0x39ba19ef	0.00035496007
152	0x3b8dad80	0.0043236613
153	0x3a64dc78	0.0008730362
154	0x3b75cc47	0.0037505792
155	0xbb4cf9cb	-0.0031276818
156	0x3cfaded1	0.030623825
157	0xb9bfb524	-0.0003656532
158	0x3a419d36	0.0007385792
159	0x3e002de5	0.12517507
160	0x3a772c0a	0.00094288646
161	0x3c108dae	0.008822842
162	0xbba23a2d	-0.0049507827
163	0x3ae6bfb9	0.0017604745
164	0x3a26dd5a	0.00063653814
165	0xbc7384df	-0.014863222
166	0x3d4a1125	0.049332757
167	0x3997bb02	0.00028940296
168	0x3b03c69e	0.0020107399
169	0x3908b130	0.00013035978
170	0xbaa96b7f	-0.0012925713
171	0xbb549135	-0.0032435183
172	0xba030b78	-0.00049989624
173	0xbb10aad6	-0.0022074482
174	0xb942d242	-0.00018579609
175	0xbb8ee0a3	-0.004360275
176	0x3b0fe52a	0.002195666
177	0xb8bd66ea	-9.0313915e-05
178	0xba16e785	-0.0005756545
179	0xba964346	-0.0011464141
180	0x3b373e73	0.0027960807
181	0x3bc55e95	0.006023238
182	0xbe048bdf	-0.12943982
183	0xbaba0284	-0.0014191424
184	0xbae4a241	-0.0017443375
185	0xbd4278db	-0.047478538
186	0xb988c5d3	-0.00026087332
187	0x3b65d973	0.0035072237
188	0xbb0854f5	-0.0020802591
189	0xba32d283	-0.000682153
190	0xb9935d6f	-0.00028107638
191	0x3bfc5d1d	0.0077015297
192	0xb9e862de	-0.0004432415
193	0xba15df76	-0.0005717197
194	0xb99f15fb	-0.0003034322
195	0xb9b16280	-0.0003383346
196	0xbb8ee6f1	-0.0043610265
197	0x3a51f774	0.00080095907
198	0xbd6ca39f	-0.05777323
199	0xbe592a02	-0.21207431
200	0xbb5b4922	-0.0033460339
201	0x3b81b6b3	0.003958547
202	0xbc985891	-0.01859692
203	0xba430986	-0.0007440079
204	0xb9a33d6e	-0.0003113555
205	0x3ea9acfb	0.33139786
206	0xbd39c73a	-0.045356013
207	0xba9c8111	-0.001194032
208	0x3a4cb04a	0.00078082515
209	0xbac3b507	-0.001493127
210	0x3b81b436	0.0039582504
211	0x3b06a03a	0.002054228
212	0x3c21a4ca	0.009865949
213	0xb9ed833f	-0.0004530195
214	0xbb03b1bc	-0.0020094952
215	0x3ae5ab89	0.0017522435
216	0x3b88a181	0.0041696434
217	0xbc7954d4	-0.0152179785
218	0xbb76ef41	-0.0037679228
219	0x3cea6a45	0.028615126
220	0xbab7d7f7	-0.0014026155
221	0xbafb998c	-0.0019195541
222	0xbc779f06	-0.015113598
223	0xb9946406	-0.00028303283
224	0xbbc740bc	-0.006080715
225	0x3a8086fd	0.0009805855
226	0x3c2585c5	0.010102694
227	0x3bade608	0.005306963
228	0x39820356	0.00024798018
229	0xba5ae46c	-0.00083500776
230	0xb8e0bf42	-0.00010716777
231	0x39f41dd0	0.0004656152
232	0x3df81b65	0.121146
233	0x3a8f5164	0.001093429
234	0x3a895783	0.0010478351
235	0x3b0d4c35	0.0021560316
236	0xbacbbbde	-0.001554366
237	0x3b899b15	0.0041993954
238	0x3ca63d91	0.020293029
239	0x3a9772a7	0.0011554555
240	0xba35cf71	-0.0006935513
241	0x3a9c11d8	0.0011907173
242	0xbad4c694	-0.0016233497
243	0xbac478c0	-0.00149896
244	0x3a877c04	0.0010336642
245	0x3bebd442	0.007196934
246	0x3a5969c4	0.00082936534
247	0x3ca2f9d7	0.019894524
248	0x3b8d7710	0.004317172
249	0xb9b8bfb6	-0.0003523805
250	0x3b1a4b8b	0.0023543562
251	0x391c5453	0.00014908733
252	0xba9715d4	-0.0011526891
253	0x39f1dc60	0.00046131294
254	0xb98a4578	-0.0002637317
255	0x3b22d28d	0.0024844736

conv5_2.bias f4 [4]
0	0x3dc1400a	0.094360426
1	0xbca7c996	-0.020481866
2	0x3a9c2883	0.0011913929
3	0x3dc313b6	0.09525244
